network.pth (torch, 585528 bytes, 10 tensors)

mod1.0.weight f4 [32, 3, 5, 5]
000000 e1 e4 8e bd c6 4b 80 bd b1 f2 50 bd 04 21 88 bd
       -0.06977249 -0.06264453 -0.0510127 -0.06646922
000010 81 d1 09 3c 13 78 b6 bd 9a df 25 3c 16 ef 39 be
       0.008411766 -0.08909621 0.010124112 -0.1815761
000020 6a 62 17 be 92 eb cc bd d5 db 53 3e 37 84 d9 3d
       -0.14783636 -0.10005869 0.20689328 0.10620921
000030 cc 9a 9b bd 57 e0 7e 3d ba d1 51 bc 61 bd 0f 3d
       -0.075978845 0.062225666 -0.01280635 0.035092715
000040 33 fb 51 3e 33 88 7d 3d b4 8e d5 3d 1c ef 96 3c
       0.20505981 0.061897468 0.10427609 0.018424563
000050 95 21 00 3e 79 36 af 3d 0a bd 20 3e 14 9f 14 3d
       0.1251281 0.08555312 0.15697113 0.03628452
000060 7f 43 fa bb 4b 0a bf 3d 20 1d 30 be 70 0e 05 be
       -0.0076374407 0.09328135 -0.1719861 -0.12993789
000070 c0 0b 88 3d fe 68 53 3d 1a 3d c5 bd bf 61 8f bd
       0.06642866 0.0516138 -0.09630795 -0.070010655
000080 e0 29 4e be 8b f4 79 be a7 c9 ae bd 08 e6 c6 3d
       -0.20133162 -0.24409692 -0.08534556 0.09711844
000090 4a c4 71 bd 96 84 7d 3d 47 bb 1d be 66 ec c2 bd
       -0.059025086 0.061894022 -0.15403472 -0.09517746
0000a0 7e 80 08 3e d1 46 cb bb a7 b3 df 3c 50 89 89 bd
       0.13330266 -0.0062035103 0.027307345 -0.067156434
0000b0 3b e7 d7 bd 9c c6 dc 3d d8 f8 96 bd f6 c3 06 be
       -0.105421506 0.10780069 -0.07371682 -0.1316069
0000c0 81 ae 51 bc 4b f2 e5 bc 2b 43 9f 3d 2f 8c a4 bd
       -0.012797953 -0.028069636 0.07776483 -0.080345504
0000d0 b8 c9 e1 bb 4e 24 24 3e 69 5b 25 3e a0 dd 16 3e
       -0.006890502 0.16029474 0.16148151 0.1473298
0000e0 ed 9b e9 bc de 41 5a bb 58 f0 06 be 39 b6 ad bd
       -0.028516734 -0.003330342 -0.13177621 -0.08482022
0000f0 2d 4f 5c 3e 5b de c0 3d 53 11 66 bc ba 00 0a bc
       0.21514578 0.09417411 -0.014042216 -0.008423025
000100 2f 62 3c bd 8a 97 28 bd 78 7b e7 3d 7d 4a b2 bd
       -0.045992073 -0.041160144 0.11302847 -0.08705614
000110 35 42 26 bd c5 42 e4 3d 35 22 94 3b 72 37 69 bb
       -0.040590484 0.11145548 0.0045206794 -0.0035586026
000120 fa f3 0a bd d0 da 05 be 0a 09 84 bc e3 a5 ae bc
       -0.03392408 -0.13071752 -0.016117591 -0.021319335
000130 8d 0f d9 3c 6f 86 9d 3d ed e0 b0 bd 83 d3 aa bd
       0.026496673 0.07691657 -0.08636651 -0.08341124
000140 31 ce 11 be ad 69 bb bd 13 2e 2c be a7 69 cc bd
       -0.14238812 -0.091510154 -0.16814451 -0.09981089
000150 5f f1 7c be 8b 8f b1 bd 66 3f 20 3d 92 ad e0 3d
       -0.24701451 -0.08669957 0.03912296 0.10970606
000160 bb 70 24 3e 0c e1 1a 3e 13 52 db bd 22 b2 1b be
       0.16058628 0.15124911 -0.10709014 -0.15204671
000170 75 7b 02 be 46 29 e2 bc 60 8b bc bd dc 6c d0 bd
       -0.12742408 -0.027607571 -0.09206271 -0.10177013
000180 62 8f 5c 3c 6a 71 23 3d 19 e0 84 bd ec c9 65 bd
       0.0134619195 0.039903082 -0.06488056 -0.05610077
000190 f8 17 ae 3d bd 2d e3 3d 7d 3e 6c 3d af e4 a2 3c
       0.085006654 0.11092708 0.05767678 0.019884435
0001a0 61 ee 2c 3d b0 18 bb bd 92 67 08 be 72 d1 49 be
       0.042219523 -0.09135568 -0.13320759 -0.19708803
0001b0 18 ba 2b bd e5 03 ff bd 4c 0e 5f 3e 10 69 6e 3c
       -0.04192552 -0.12451915 0.21782798 0.014551416
0001c0 79 45 77 3e 7c 96 96 3e fe 4f 76 3e 4e 65 30 3d
       0.24147595 0.29411685 0.24053952 0.04306536
0001d0 de c8 be 3d fa 45 91 3d 33 6e 86 3c 3a c3 2d 3e
       0.09315656 0.07093425 0.016409969 0.16969004
0001e0 15 f8 fd 3d d8 53 5a bd 4b 53 33 3d 81 dc 6b 3d
       0.124008335 -0.053302616 0.043780606 0.057583336
0001f0 95 f2 c7 3d 08 5f af bc 66 56 1b bc 22 d4 81 3c
       0.09763066 -0.02140762 -0.009481048 0.015848223
000200 13 19 51 3d 95 3f c7 bd 80 37 32 be 64 39 6b be
       0.051049303 -0.09728924 -0.17403984 -0.22971112
000210 d4 69 38 be 0a e5 42 be 88 0c 2b be 81 23 18 3e
       -0.1800912 -0.19032684 -0.16703999 0.14857294
000220 ac 7e 99 3d b5 ff 0e 3e f8 f6 a0 3d a7 31 03 3e
       0.07494864 0.13964732 0.078596056 0.1281191
000230 c2 5c e8 bc 4d 2b 94 bc 20 7e 2e 3c 4c c7 9f bb
       -0.028364543 -0.018087054 0.010650188 -0.004876053
000240 fc ff 04 3e 70 75 42 3d 40 d3 90 3d 7c 3f cb 3d
       0.12988275 0.04747528 0.07071543 0.09924218
000250 ea 3f 41 bd 16 90 d7 bd 92 ba 21 be 50 72 91 bd
       -0.047180094 -0.10525529 -0.15793827 -0.071018815
000260 f6 bf f7 3c c5 63 f1 3c d4 4a a8 3d 27 98 8b bd
       0.030242901 0.02946652 0.08217397 -0.0681613
000270 ec da ee 3c 86 12 8f bb ee 35 d7 ba d2 9c 34 bd
       0.029157124 -0.004366222 -0.001641927 -0.044094868
000280 a7 cf 5a bd 0b 0d 11 3e 34 eb eb 3d 0d 56 55 3e
       -0.05342069 0.14165132 0.11519471 0.20833607
000290 9d 2c 19 3e d5 b6 2f 3e 16 1d 14 3d 75 d5 8a 3e
       0.14958425 0.17159589 0.03616055 0.2711598
0002a0 00 d3 e1 3d 73 44 b3 ba d1 76 b6 3d 19 35 a4 3d
       0.11026573 -0.0013677016 0.08909381 0.0801794
0002b0 7d 02 b3 3c 7a 7f 07 3c a3 f5 d7 3d fe c7 a4 bd
       0.021851772 0.008270139 0.10544898 -0.08045958
0002c0 a1 dd 84 bd e3 55 1c be 0b 72 19 3d e5 4b bb bd
       -0.06487585 -0.15267138 0.037462275 -0.09145335
0002d0 69 bb 21 be 75 91 08 be 30 ab 4e be 79 6d c1 bd
       -0.15794148 -0.13336737 -0.2018249 -0.094447084
0002e0 b1 50 83 bd 97 57 f3 bd 3a 18 d0 bd 3a fe 0c be
       -0.06411875 -0.11881941 -0.10160871 -0.13768855
0002f0 25 72 6a 3d 48 78 b9 bd c1 81 75 bd f2 b2 02 3e
       0.057237763 -0.09056145 -0.059938196 0.12763575
000300 8a 31 97 3d d9 c2 12 be 4d 0f ac 3c d1 72 94 3d
       0.07382496 -0.14332141 0.02100339 0.07248462
000310 cb cd 86 bd c6 6f c4 bd c7 85 b8 bd 7a fb 4e bd
       -0.06582221 -0.095916316 -0.09009891 -0.050532795
000320 f0 d6 9c 3d 84 75 9d 3d 04 0c ce 3d fa 16 1a 3d
       0.076581836 0.0768843 0.100608855 0.03761957
000330 a8 3c 80 3c b7 a4 1f bd 34 0d 74 bd 4b 77 85 bd
       0.015653923 -0.038975444 -0.059582904 -0.06516894
000340 ea 2f e7 bd a4 f0 dd 3c 4f 78 98 3d 26 28 ac bd
       -0.11288436 0.027092285 0.07444822 -0.08406095
000350 fe 84 78 3b 0f c8 92 3d ef 9e 8f 3d 70 01 49 3c
       0.0037921066 0.071670644 0.07012736 0.012268409
000360 b5 c6 17 3e bf 79 12 bd 54 21 b6 3a df f9 14 be
       0.14821894 -0.035760637 0.0013895431 -0.14548443
000370 cf c4 90 3d a0 78 0c bc 74 fc bd 3d ae 88 28 3d
       0.07068788 -0.008573681 0.09276667 0.041145973
000380 aa 56 0b be 96 09 b3 bc cf 26 09 bd 66 34 e0 bc
       -0.13607278 -0.021855157 -0.033484276 -0.027368736
000390 9a 44 ce bd 12 f9 21 3d 14 bf 1e 3e 1a 69 20 3e
       -0.100716785 0.039544173 0.15502578 0.15665093
0003a0 f4 4e 25 3e c8 82 88 bd 26 4a 87 bc f8 42 0d 3e
       0.161434 -0.066655695 -0.016514849 0.13795078
0003b0 62 dd 08 3e 5f 9f 0e 3e 88 92 d5 3c b7 56 19 bc
       0.13365701 0.13927983 0.026070848 -0.009359053
0003c0 d4 16 11 bd c0 e0 6b be 9c 03 c2 bd c7 68 7f 3b
       -0.03542216 -0.23034954 -0.09473345 0.0038972364
0003d0 57 23 62 3d 32 cb 45 be 9b 95 8a be bc 8e 23 be
       0.055209484 -0.19315794 -0.27067265 -0.15972418
0003e0 2f 45 c9 3a 70 03 4b bd c9 08 52 3d a9 3a 2d 3d
       0.0015355701 -0.049563825 0.05127791 0.04229227
0003f0 fe 9b ab bd e0 d2 40 3c ba b0 8b 3d f3 4b 0e 3e
       -0.083793625 0.0117690265 0.06820817 0.1389616

mod1.0.bias f4 [32]
000000 38 11 89 bb 4d 1b 93 bd f8 da 08 be 8b a0 d7 be
       -0.004182961 -0.071829416 -0.1336478 -0.42114672
000010 3f 4d 83 be b8 a9 dd 3c 55 c7 bc be 99 7c 8f 3d
       -0.25644872 0.027058467 -0.36870828 0.07006187
000020 02 99 5a be b9 5a 28 3d bd f1 94 3e 4a d8 09 be
       -0.2134743 0.041102145 0.29090682 -0.13461414
000030 0d f1 d0 bd 28 6a f4 bd d0 12 90 3e 95 bb 2e 3e
       -0.10202227 -0.1193431 0.28139353 0.17063744
000040 a2 b1 3c 3e 76 ee 07 3e 09 6f 42 bc 6d 1f 8c 3b
       0.18427137 0.1327456 -0.011867293 0.004276207
000050 7d 6a 9e 3e ae 00 79 3c 84 25 ee bd 7a 1b 45 be
       0.3094062 0.015197916 -0.11628249 -0.19248763
000060 1a 32 4e be 86 7f 35 3c 43 3e c1 bd 34 1b 99 be
       -0.201363 0.011077767 -0.094357036 -0.29903567
000070 57 ea 19 3c 3d 19 45 be 01 b5 b9 bc 5a fd 16 3c
       0.00939425 -0.19247909 -0.022669317 0.009215677

mod1.2.weight f4 [32, 32, 5, 5]
000000 ef 40 f3 3c 43 fa a6 bc 88 1f f3 3b fd c8 82 bc
       0.029694049 -0.020383006 0.0074195303 -0.01596498
000010 0f f1 46 3c 1f 65 3d 3d 65 49 ca bc 26 98 9b bc
       0.012142434 0.046239015 -0.0246932 -0.018993448
000020 bc f5 96 3b 09 68 5a 3d b5 45 24 3d 11 1d a0 bc
       0.0046069305 0.053321872 0.04010554 -0.01954511
000030 53 b1 78 bd 37 25 3e bc 6d ac 0e 3d 79 2d 66 3d
       -0.060715985 -0.011605552 0.034832407 0.05619571
000040 23 84 25 3c cf 36 b3 bc 59 95 bf 3c 5a c7 08 3d
       0.010102305 -0.02187672 0.023386644 0.03339324
000050 e0 f4 05 3d 30 01 9d 3b 4c 1e ea bb 7d 5e 27 3d
       0.032704234 0.0047914013 -0.007144725 0.040861595
000060 f5 07 a9 3c af 51 a4 bc 70 90 86 bc d3 fd c5 bc
       0.020633677 -0.020058481 -0.016426295 -0.024168884
000070 27 9b 20 bc 64 04 1f 3b 82 2e 3c 3a 1e b1 fc bc
       -0.009802616 0.0024264092 0.0007178561 -0.030846175
000080 db 7f 5e 3d 36 1e 97 ba 92 5c bc 3c e9 72 3d bb
       0.05432115 -0.0011529389 0.02299336 -0.0028907603
000090 86 fb c8 3c cd 68 32 3d f3 16 8c 3c b0 cd c1 3b
       0.024533998 0.043556977 0.017100787 0.0059144124
0000a0 0a 68 04 bd 5b cd de 3c 96 9a bd 3c 7c a6 c3 3c
       -0.032325782 0.02719753 0.023145001 0.023883097
0000b0 5a 04 12 bd 18 a1 ec 3c d4 3e 12 3d 73 2a b2 3b
       -0.03564868 0.02888541 0.03570445 0.0054371892
0000c0 c4 da a2 3c b4 db d5 3c a4 3d 78 bc a6 b5 d7 3b
       0.019879706 0.02610574 -0.015151415 0.0065829335
0000d0 30 bf 77 3c 00 d4 9e ba 04 5c a2 3b 57 f1 29 3c
       0.015121266 -0.0012117624 0.004954817 0.010372481
0000e0 a6 de 67 3b 52 7d 96 3c 7c 9d 03 3d 63 75 f2 bb
       0.0035380512 0.018370304 0.03213261 -0.0073992475
0000f0 59 05 98 bc 77 40 07 3d 77 22 cb 3c a2 58 c8 3b
       -0.018557237 0.033020463 0.024796708 0.0061140815
000100 3b cd 7a 3c 90 ff 25 bc f5 0b 2b 3c 68 80 59 3d
       0.01530772 -0.010131732 0.0104398625 0.053100973
000110 64 42 7f bc ce 7e 0d bc d6 20 ff bb 0f 46 13 3d
       -0.015579794 -0.00863619 -0.007785897 0.035955485
000120 a8 3b a1 3c 82 39 36 3d 84 c0 a8 3c ef 96 ac bd
       0.019681767 0.044488437 0.020599611 -0.08427226
000130 7e a9 69 bd 22 14 43 3c ec 4b 8f bc 45 92 b7 bc
       -0.057046406 0.0119066555 -0.017492257 -0.022408614
000140 aa 0d 8a bc f8 5f a4 bc 76 67 e0 bc 00 a6 a9 b6
       -0.016852219 -0.020065293 -0.027393084 -5.0559174e-06
000150 9c 76 8d bc d0 96 dc bc bf 4b 8a bc 6f af 1d bc
       -0.017268471 -0.026927382 -0.016881822 -0.009624346
000160 bd f5 6f bc b7 50 1f 3d fc 52 41 bc 8e 51 14 bd
       -0.014645991 0.038895335 -0.01179957 -0.03621059
000170 98 ea 03 bb b8 57 c0 3c 73 6a 39 3d 7d cf e5 3a
       -0.0020128842 0.023479328 0.045267534 0.001753315
000180 d0 b8 99 3b 6c 1f fc 3c 7b 11 bd 3c 17 d7 09 bd
       0.004691221 0.030776702 0.023079624 -0.03365239
000190 dc 81 03 bd 94 7f 8b 3c c8 18 d0 3c 02 ab 72 3c
       -0.032106265 0.017028607 0.025402442 0.014811279
0001a0 46 b4 da bb 02 35 24 bd 40 a4 81 3c 68 5d 0e 3c
       -0.0066743223 -0.040089615 0.01582539 0.008689262
0001b0 e4 fc 26 bc 1e 71 c3 bc 9f a9 a0 3c d8 93 37 3d
       -0.01019213 -0.02385765 0.019612132 0.04481873
0001c0 7c c5 d1 3c e0 1d 3c 3d 06 23 f4 bc af 1d 40 3b
       0.025606863 0.04592693 -0.029801857 0.0029314568
0001d0 18 da 6c 3d 24 bf 85 3d 60 ea 2d bc ad bb b9 bb
       0.057825178 0.06530598 -0.010614961 -0.0056681246
0001e0 fd 1e 29 3d ef 81 23 3d 45 48 b1 3c c7 2e ec bc
       0.04128932 0.039918836 0.021640906 -0.028830899
0001f0 de 35 fa 3b a7 56 07 3b fc 16 a2 3b 3a d1 4b 3a
       0.007635816 0.0020651014 0.0049465876 0.00077750126
000200 07 92 e6 3b 34 90 c9 3a 21 ee 23 bc 71 07 63 3c
       0.007036451 0.0015378059 -0.010005505 0.013856755
000210 e9 2f aa bc 24 9c ac bc 1f 33 b0 bc 98 87 15 3c
       -0.020774798 -0.021070547 -0.021508751 0.009126566
000220 ff e0 62 3c 1e 49 ac bc a4 b2 4f 3c 07 84 54 bd
       0.013847589 -0.021030959 0.012676869 -0.051883724
000230 ed 04 32 3a 52 d1 0b 3d ed 57 e8 bb 11 ba 03 3d
       0.0006790895 0.03413517 -0.0070905597 0.03215987
000240 d9 4d 62 3c 20 44 3d 3c 71 fc e6 3b 2e 95 cc bc
       0.013812506 0.011551887 0.0070491363 -0.024973478
000250 14 af 16 bd a5 47 dd bc f1 93 25 bd 49 ae e3 ba
       -0.03678806 -0.027011702 -0.04042429 -0.0017370667
000260 2c 7a 06 3c 9d d0 2c 3d 61 ea c3 3c cb 06 3b bd
       0.008207839 0.042191137 0.023915472 -0.045660775
000270 2c bf 11 3c c6 6d 16 3c d9 28 04 3d f5 a4 17 3d
       0.008895677 0.009181445 0.032265518 0.03702255
000280 61 01 eb bc 64 d6 57 bd 95 0f 61 3c 50 cb c5 bb
       -0.028687181 -0.052694693 0.013736625 -0.0060361996
000290 c6 36 a2 3b d2 79 1f bc 0d e2 38 bd a0 bf 36 bd
       0.004950377 -0.009733634 -0.045137454 -0.04461634
0002a0 57 a0 a4 3b 1a f2 df bc ce 34 4e 3d 73 b0 98 ba
       0.005023997 -0.027337123 0.050343327 -0.0011649266
0002b0 52 8c 5c 3d d8 c7 97 3d 7f b4 af 3d e4 43 05 3c
       0.053844757 0.07411164 0.08579349 0.008133862
0002c0 67 1f 82 3d 77 73 a4 3c fc e4 75 bc 57 7d c0 ba
       0.06353646 0.02007459 -0.015008207 -0.0014685792
0002d0 20 92 17 bc 6c 8a 83 3d 16 07 15 3c bd b3 83 bc
       -0.0092511475 0.06422886 0.009095928 -0.016076917
0002e0 42 fc f1 ba 46 42 e4 3c 16 3c 0f 3d 5c f5 d1 3c
       -0.001846202 0.027863633 0.03496941 0.025629692
0002f0 33 f8 2e bd 4b 5d 64 bc 94 d6 34 3d d2 54 17 3d
       -0.04271717 -0.013938258 0.04414995 0.036946125
000300 67 d3 59 3c 62 1a bd bc 7c 96 df 3c 1e a9 d2 3c
       0.013295031 -0.02308387 0.027293436 0.025715407
000310 44 db fc 3c b1 0d d7 bc 3f ae d2 bc 47 d0 84 bb
       0.030866273 -0.026251646 -0.025717853 -0.004053149
000320 c8 b0 33 3a 95 af 97 bc 0c 74 cb 3c ea 8a 9d 3a
       0.00068546506 -0.018516341 0.024835609 0.0012019549
000330 12 d5 cd 3c fb ae 07 3a a1 e3 cb bc 6b 53 18 bd
       0.025126014 0.00051759154 -0.024888815 -0.03718893
000340 f2 f1 2e bd d5 ce 91 3c 31 b4 d9 bc eb 89 6b bd
       -0.042711206 0.01779882 -0.02657518 -0.057504576
000350 17 40 2e bd 45 fc b4 bc 27 62 16 3d da e7 19 bd
       -0.04254159 -0.022092948 0.0367147 -0.037574627
000360 ab 2d 60 bd 41 6b 25 bc 43 27 72 bc 72 bc 2a 3d
       -0.054731052 -0.010096372 -0.014779869 0.04168362
000370 50 7d c2 bc c8 4e 06 3d 64 b8 35 3d ab 5a 1b 3c
       -0.023741394 0.032789975 0.0443653 0.009482066
000380 2c 23 19 bb 1c 21 35 3c 29 49 70 ba b8 5d 02 3c
       -0.0023366911 0.011055257 -0.0009166175 0.007956915
000390 ea d7 db 3c ce 62 b6 bc 4b 25 a4 3c 57 8c e7 3c
       0.026836354 -0.02226391 0.020037314 0.028265161
0003a0 d2 48 0b 3d b6 62 a5 3c 7b 5a e0 bc 43 84 f9 3c
       0.034004994 0.02018867 -0.027386894 0.030458575
0003b0 d3 29 82 3d 45 6e 3f bb b3 33 d1 3b e3 ac bf bc
       0.063556336 -0.0029210013 0.006384337 -0.023397868
0003c0 8b 11 80 3d 61 fe d3 ba 2f b3 8f bc 72 d6 9b bc
       0.06253346 -0.0016173833 -0.017541496 -0.019023154
0003d0 91 94 a0 bc 95 de ab bb f8 2d c4 bc b6 de 41 bc
       -0.019602092 -0.0052450397 -0.0239477 -0.011832884
0003e0 50 c7 78 bc 3c e6 3e bd 3d aa c8 3b bd f3 25 bd
       -0.015184239 -0.046606287 0.0061238096 -0.04051565
0003f0 ca d0 bb bc 12 c2 39 3b 7b 87 77 bd 63 55 56 3b
       -0.022926707 0.0028344435 -0.06043194 0.0032704703

mod1.2.bias f4 [32]
000000 61 cf 89 be 9a 29 b2 bd 6f cd 49 be 67 12 10 be
       -0.2691603 -0.08699341 -0.19707273 -0.1406952
000010 da 3c 9e bd 4c 51 49 be f6 99 e5 bd 9c 21 fa 3b
       -0.0772645 -0.19659919 -0.11211006 0.007633401
000020 df 69 43 bd fc 35 d6 ba 78 c2 6b 3c 59 8c 61 bd
       -0.04770839 -0.0016342993 0.014389627 -0.055065487
000030 41 b2 1e be f7 3a 96 bd e1 00 3a be ad 9a 69 be
       -0.15497686 -0.073354654 -0.18164398 -0.2281291
000040 46 be 6e be 6f 5d 23 be 58 2b 45 bd 0a 0e b9 bd
       -0.23314771 -0.15953611 -0.04813704 -0.09035881
000050 dc 59 74 bd b7 eb 4f bd d6 a2 30 bd 2f 84 05 3d
       -0.05965601 -0.050761905 -0.043124042 0.032596763
000060 89 48 af bc e3 dc e2 bd 2e cb 93 bb 8d 13 f1 bd
       -0.021396892 -0.11077287 -0.004510305 -0.11771307
000070 ae f8 8c bd 0c 1e 22 be d9 36 bc bd d8 20 59 3d
       -0.068833694 -0.15831774 -0.09190149 0.053009838

mod1.4.weight f4 [64, 32, 5, 5]
000000 0d 11 3f 3d 7d d9 06 3d fb 69 fd bc d8 6c 8d 3c
       0.04664712 0.032922257 -0.030934324 0.017263815
000010 20 08 fa bb 21 c7 79 3b 34 2d 42 3d d4 ba 14 3d
       -0.007630363 0.0038113075 0.04740639 0.036310986
000020 06 d1 2c bd 4e ee 23 bd ed cd 12 bd dd 78 9d bc
       -0.042191528 -0.040022187 -0.035840917 -0.019222671
000030 3c 04 9a 3c bb 75 8b 3c f7 84 92 3d 89 b1 ef bb
       0.018800847 0.017023912 0.07154267 -0.007314865
000040 24 f3 72 3c c4 91 1a 3c 0a f6 28 bd 13 8c 86 3c
       0.014828477 0.009434167 -0.041250266 0.016424214
000050 29 3c 2f 3d 1d 6f fd bc b1 1b b7 3b 5d 53 77 bd
       0.042781983 -0.030936772 0.005588018 -0.060382236
000060 9d ed 32 bd 63 1c ae bc 88 9c f2 ba a8 d9 ad 3c
       -0.043683637 -0.02125377 -0.0018509785 0.02122195
000070 13 ed 97 3c 40 cf 41 bd 6a ec 1b 3d f2 d6 ba 3c
       0.018545663 -0.04731679 0.03806726 0.022807572
000080 c8 72 80 3c 8d b7 cf 3c 90 39 0c bd 03 c9 4f bd
       0.015679732 0.025356079 -0.034234583 -0.05072881
000090 05 dc af bb 19 36 be bc ca 89 3f ba e5 8d dc 3c
       -0.0053668045 -0.023219155 -0.0007306604 0.02692313
0000a0 6f 94 82 bc 3e a0 60 bd ff 9f 3e 3c 0c 2f 2d bb
       -0.01593992 -0.05484032 0.011634826 -0.0026425747
0000b0 f2 1a a0 3d ee 20 0e 3c e9 83 a3 bb 32 34 98 bd
       0.078176394 0.008674843 -0.00499009 -0.074318305
0000c0 84 3e 82 bb e8 ca e2 bb e0 61 6d bc 26 ff 33 3c
       -0.0039747376 -0.006921161 -0.014488667 0.010986125
0000d0 87 64 46 3d 25 97 0a 3c 59 71 04 3d 87 a6 3e bc
       0.048435714 0.008458887 0.03233466 -0.011636383
0000e0 3b 10 38 3c 2c 08 28 3d 0d 22 6b 3d 81 7b a4 3d
       0.011234338 0.04102342 0.05740552 0.08031369
0000f0 fc 94 4d bd 8d c6 d2 bc d0 58 94 bc e2 b6 c8 3c
       -0.05019091 -0.025729442 -0.018108755 0.024501268
000100 e5 f7 dc 3c aa ac 17 bd f5 da 80 bd 12 06 8b 3c
       0.026973674 -0.0370299 -0.06291763 0.016970668
000110 eb 37 be 3c 28 a4 70 3d e3 d8 84 3b 12 d0 ef bc
       0.023220023 0.0587503 0.004054175 -0.02927402
000120 d5 f8 9c bc 8c 15 68 3d 7a 95 05 3d 12 d0 f9 3b
       -0.019161621 0.056661174 0.032613255 0.007623681
000130 d4 c9 c9 3c c4 5b 07 3d 7a 2e 1d 3d 20 a7 fb 3c
       0.024632372 0.0330465 0.0383744 0.03071934
000140 e7 8f 64 bd a0 4b 26 bd ec 2c b3 3a f8 9d a3 3b
       -0.0558013 -0.040599465 0.0013670004 0.0049931966
000150 bb 19 17 bc 03 94 00 bd 45 92 2a bc 81 0a 2a bd
       -0.009222443 -0.031391155 -0.01041085 -0.041513924
000160 94 b3 53 bd 58 3c 35 bd 26 0e f1 bc 4d 0f a1 3a
       -0.05168493 -0.044247 -0.029425692 0.0012287885
000170 11 89 24 bd 05 59 54 bd d5 89 8a bd cb df 9a bc
       -0.04016978 -0.05184271 -0.067645706 -0.01890554
000180 6c 97 ac 3c d6 0a 92 bc 18 bc 22 bd d8 1f 7d bd
       0.021068297 -0.017827433 -0.03973016 -0.061797947
000190 64 62 9a bd 19 3f 53 bd 56 65 3d bb 9c f8 26 bd
       -0.07538298 -0.051573846 -0.0028899512 -0.040764436
0001a0 48 8b 8c 3c 60 77 4f bd 47 ca 8f 3c 84 bc 2f 3d
       0.017156258 -0.050650954 0.017552508 0.042904392
0001b0 98 3b 71 3d 9f 38 97 3d 3e b9 62 3c 0f 1f ce bc
       0.058894724 0.073838465 0.0138381105 -0.025161294
0001c0 f2 c0 63 bd 8d 18 db 3c 09 80 e4 3c c0 ca b4 3c
       -0.05560393 0.026745105 0.027893083 0.022069335
0001d0 84 26 fe 3c d8 48 2e bd b8 56 91 bd f6 57 24 bd
       0.031024225 -0.042549938 -0.070966184 -0.04012295
0001e0 86 e1 91 3c 55 e3 4a 3d 58 98 88 3c b4 90 14 bd
       0.017807733 0.049533207 0.016674206 -0.036270812
0001f0 0e c5 bd bc b0 fa 97 3c 01 c5 c0 3a ad 4e 8d bc
       -0.023165252 0.018552154 0.0014707149 -0.01724943
000200 ec 62 fa 3c d0 19 e8 bb f4 e3 84 3c 67 b9 95 3c
       0.030564748 -0.007083155 0.016221978 0.018276883
000210 bd ce 05 3c 60 2a 3c bd 8a 0a 1f bd 38 d8 ea bc
       0.008166966 -0.04593885 -0.03882841 -0.028667554
000220 8e d7 18 3d 49 7d 08 3d a3 30 09 bd 07 26 be 3c
       0.037314944 0.033322606 -0.03349365 0.023211492
000230 c0 bb 8a bb da 75 26 3c d0 60 34 3d a9 a8 4e 3b
       -0.0042338073 0.010159934 0.04403764 0.0031533635
000240 14 bb 1d bb 54 03 e9 bc d9 d4 63 bd 7e 56 b3 bc
       -0.0024067806 -0.02844397 -0.05562291 -0.021891829
000250 aa 42 76 3c a0 8e f7 bc 71 b0 0b bd 92 66 2b bc
       0.015030542 -0.030219376 -0.034103815 -0.010461466
000260 b6 4a 0e bd 09 f8 af 3b a9 96 3a 3d a6 81 a2 3c
       -0.03473922 0.0053701443 0.045553837 0.019837212
000270 ff 6c a4 3c 16 84 02 3d 1f b8 a1 bc a4 5e 0f 3c
       0.020071505 0.03186425 -0.019741116 0.008750591
000280 3c a5 04 bd 79 46 d1 3c 78 db 65 3d fb 24 08 3d
       -0.032384142 0.0255463 0.056117505 0.033238392
000290 c3 67 d1 3a 89 be b2 3b d4 a7 cf 3c b5 20 89 3c
       0.0015976358 0.0054548425 0.025348581 0.016739229
0002a0 1a 9b bb bb 39 a2 f2 3a 0a 38 6c 3c b8 b2 c9 bc
       -0.0057252767 0.0018511481 0.014417658 -0.024621353
0002b0 9b 42 2b bb 2e ae 6c bc 20 fb 21 bc e0 3f 4e 3d
       -0.002613223 -0.014445825 -0.009886533 0.050353885
0002c0 0c c2 4a 3d bc 6d ac bc 17 59 e7 3c 35 ef d8 bc
       0.049501464 -0.02104842 0.028240724 -0.02648125
0002d0 04 d9 a3 3c 43 ab 0b bd 53 f7 12 bd 58 aa 89 bc
       0.020000942 -0.034098875 -0.035880398 -0.016804859
0002e0 ea a2 51 3c 54 0e 76 bb 04 30 33 bc 74 34 8f bd
       0.012795189 -0.0037545161 -0.010936741 -0.069924265
0002f0 52 3c bd bc 39 70 bd bc 9f 56 45 3c 77 a0 88 3c
       -0.023100052 -0.023124801 0.012044578 0.016678078
000300 20 77 5f bd 1b b7 1e bd 60 6b 43 bc b1 dc 9b 3b
       -0.054556966 -0.03874884 -0.011927456 0.004756533
000310 da 8f d7 3c 27 40 31 bd 81 32 8b bc 8b e1 be 3c
       0.026313711 -0.04327407 -0.016991856 0.023300907
000320 bb 8f 72 bc 9a 5f 57 bd 88 b1 98 ba 3e 08 a2 bb
       -0.014804776 -0.052581407 -0.0011649588 -0.00494483
000330 35 20 00 bc 72 3c 88 bc 5b a4 94 bd a9 49 06 3d
       -0.007820179 -0.016630385 -0.07257911 0.03278509
000340 08 51 02 bc 44 35 d6 39 94 c6 10 bd 4f d4 c6 bd
       -0.00795389 0.00040856947 -0.03534563 -0.097084634
000350 f2 24 c7 bd 52 ca a9 bb be 5d aa 3c ec ff 9b 3c
       -0.09723844 -0.005181589 0.020796653 0.019042931
000360 a2 2f 53 3d 9a be 84 bc b6 fd 24 bd 1e 71 82 bd
       0.051559098 -0.016204167 -0.04028102 -0.06369232
000370 bc a3 b6 bc 2c c0 d2 3c 6c 55 6c 3d 77 65 07 3d
       -0.022294872 0.0257264 0.057698652 0.03305575
000380 89 fe 91 bd e6 26 24 3d 42 5a 73 3c b8 65 86 3c
       -0.07128627 0.04007616 0.014853062 0.016405925
000390 b9 71 1f bd 40 d7 06 bd db 24 cc bc 4e 9a 90 bc
       -0.038926814 -0.032920122 -0.024919918 -0.017651703
0003a0 f6 fe ba bc e5 74 2f 3c 0c 0d 61 bd b3 08 31 bd
       -0.022826653 0.010709022 -0.054944083 -0.043221187
0003b0 2b 64 82 bd 73 cd 6a bc 2b a7 aa 3c f2 f2 2e 3b
       -0.06366762 -0.0143312095 0.020831665 0.00266951
0003c0 47 e7 1b bd c4 29 e9 3c 2b e1 81 bd 7b 9c eb 3c
       -0.03806236 0.028462298 -0.063417755 0.02876114
0003d0 ed df ea bc 60 f6 a5 bd c6 74 e0 bc 73 89 88 3b
       -0.02867123 -0.08103633 -0.027399432 0.004166776
0003e0 eb dd 98 3c 91 0b 9e 3a 5a b3 b6 3b e5 1f f4 3c
       0.018660506 0.001205789 0.0055755796 0.029800365
0003f0 54 30 44 bc 5c 11 ca bc 35 83 c7 bc 48 ba ea bc
       -0.011974413 -0.02466648 -0.024354557 -0.028653279

mod1.4.bias f4 [64]
000000 be c6 11 be 3d 83 1c be 4f ea c7 bd 43 7d 0f be
       -0.1423597 -0.15284438 -0.09761488 -0.14012627
000010 26 49 6f bd 7e f8 ea bb c1 ae 04 3c 8c c5 44 bd
       -0.05841937 -0.007170736 0.008098305 -0.048039958
000020 f5 51 42 bd 7d 9a 01 be 75 a1 95 bd 26 27 e5 bd
       -0.04744144 -0.12656589 -0.07306186 -0.111891076
000030 b9 2e a5 bd 03 fc 83 bd 1a ea 85 bd af 03 e2 bd
       -0.08065552 -0.06444552 -0.06538792 -0.11035859
000040 72 8c df bc a5 4b fc bc c8 f5 0e bd 34 18 64 bc
       -0.02728865 -0.030797789 -0.034902364 -0.013921786
000050 f8 e0 c9 bd 9b a8 86 bd 33 c6 02 bd 1d 8f e9 bc
       -0.098573625 -0.06575128 -0.0319273 -0.028510625
000060 cd e2 d4 bd 18 52 c3 bd 86 e4 41 bc 50 28 74 3c
       -0.10394821 -0.095371425 -0.011834269 0.014902189
000070 be c4 8c bd 51 d0 84 bd 5e 56 0c be 3a 94 03 be
       -0.06873463 -0.06485046 -0.13704821 -0.12849513
000080 eb f2 97 bd d0 b2 1f bc ef 25 8d bd e7 0e f4 bd
       -0.0741938 -0.009747222 -0.06892001 -0.11916905
000090 a0 6a 88 bd ee ef e4 bc 10 be 86 bd 15 4f e2 bb
       -0.06660962 -0.027946439 -0.0657922 -0.0069064
0000a0 2d a5 a1 bd 91 73 f7 bd 7c 70 b3 bd f8 4d 5e bd
       -0.07892833 -0.120825894 -0.08761689 -0.054273576
0000b0 89 10 42 bd 4b 3a d8 bd 73 7d ad bd 9f 12 3d bd
       -0.04737905 -0.105579935 -0.08471193 -0.046160337
0000c0 71 94 40 bd 1f 82 a5 bd 4b 53 8a bd 0f a4 06 bd
       -0.047016565 -0.08081459 -0.06754168 -0.032871302
0000d0 85 b6 e8 bb 33 2c f6 bd 89 67 2c bd ad ef 51 bd
       -0.007101836 -0.12020149 -0.042090926 -0.051253963
0000e0 02 cc c9 bd 5f 01 9c bd dd 90 f9 bc 14 d1 b7 bd
       -0.098533645 -0.07617449 -0.030464584 -0.08975425
0000f0 4c 4d d3 b9 13 b0 0f be d7 bb 23 bd bf f3 06 bc
       -0.00040302647 -0.1403201 -0.03997406 -0.008236825

mod1.7.weight f4 [64, 1024]
000000 49 3d 9d 3c 1b c9 44 bb 8b bb 8c bc 6f 7a fb bc
       0.019194262 -0.0030027095 -0.017179271 -0.03069803
000010 9e cb 01 bd 1c f2 00 bd 3e 05 d8 bc 5f 6a ad 3a
       -0.031688325 -0.031480893 -0.026369687 0.0013230554
000020 e9 60 41 3d 56 6e 36 3d be 30 ef bb b6 85 59 3c
       0.04721156 0.04453882 -0.0072995117 0.013276508
000030 8a 0b 43 3c 8a 7f 61 bd a0 fb 48 bc 35 56 42 3b
       0.011904607 -0.05505327 -0.012267023 0.0029653434
000040 7a 1e 5e bc 55 e7 ed bc d1 c5 c1 bb 78 c3 1c bd
       -0.013557071 -0.029040972 -0.005913474 -0.03827235
000050 c0 69 0b 3c 3d 2f b0 3b 32 ad d3 bb 40 bd 35 3c
       0.0085090995 0.005376725 -0.0064598555 0.011092484
000060 91 98 f0 3c c5 10 6b 3c 62 f2 63 3c a9 41 35 3d
       0.029369624 0.01434726 0.013912769 0.04425207
000070 a3 14 08 3d ba 44 20 ba 88 05 3d 3d 57 5f cc 3c
       0.033222806 -0.00061137567 0.046147853 0.024947805
000080 48 6f 46 bc e7 1c 1a 3c 3a 03 b0 bc 7b 27 7d bc
       -0.012111492 0.009406305 -0.021485914 -0.015451307
000090 6f cd f5 bc d6 d7 65 bc 9b 16 48 bc 00 3a 16 3d
       -0.030005185 -0.01402851 -0.012212421 0.036676407
0000a0 c9 95 ae 3b 48 13 1f 3d 2b 7e 2a 3c 05 78 80 3b
       0.0053279144 0.038836747 0.010406057 0.0039205574
0000b0 f7 e8 78 3c 69 0f 4b bc 33 35 97 3c e2 67 10 bc
       0.015192262 -0.012393811 0.018457985 -0.00881383
0000c0 48 d6 25 bc 85 16 69 3d 3d d9 af bc f6 3e 62 3c
       -0.010121889 0.056906242 -0.021465892 0.013808956
0000d0 b5 26 db 3a 6f 84 b7 3b 8f 02 88 bc 31 c4 a2 3c
       0.001671991 0.005600504 -0.016602783 0.019868942
0000e0 ee 9b 25 3c fc a2 3a 3d af 7d d5 bb 2e 23 97 3c
       0.010107977 0.04556559 -0.006515227 0.018449392
0000f0 77 a9 95 bb 60 cc d7 bc e4 fe 33 bb 6d 3a 3f 3b
       -0.004567321 -0.02634257 -0.002746516 0.0029179112
000100 6e 67 9e 3c cb 6b b2 bc c5 91 16 3d 74 91 f2 bc
       0.019336428 -0.021779915 0.03676011 -0.029610373
000110 35 b6 da 3b 8f 29 66 bd d7 cd bd bc a6 3e 94 bc
       0.006674553 -0.056191977 -0.023169441 -0.01809628
000120 39 4a d4 3c 33 3b 94 bc 0d 2f dd 3b 7b 51 b3 3c
       0.025914298 -0.018094635 0.0067499937 0.021889439
000130 ba 41 a5 3c 4a ed 7b 3c d3 2d fa bb 36 f7 68 bc
       0.020172942 0.015376398 -0.007634857 -0.014219096
000140 df f3 ec bc 78 d7 16 3d d2 80 06 bd eb f9 87 3d
       -0.02892488 0.03682658 -0.032837696 0.06639465
000150 97 62 dc bc 4c ee fe 3b 23 5d d6 3c ed 27 5a 3d
       -0.02690248 0.007779872 0.026167458 0.053260732
000160 3f 84 f5 bc c0 95 4d bd a4 b9 9b 3b 96 66 70 bd
       -0.029970286 -0.05019164 0.0047523547 -0.058691584
000170 25 a2 4e bb ec 96 92 3b a8 71 f3 3a 15 5d df bc
       -0.003152975 0.0044735577 0.0018573301 -0.027266065
000180 f3 e3 f7 3c d9 fc 3d 3c 5d 16 6f bc ea 3a f7 bc
       0.030260062 0.011595928 -0.014592734 -0.03017946
000190 51 eb 89 3c 71 44 10 bc 19 83 19 bd 6b 4d a8 bc
       0.01683584 -0.00880538 -0.03747854 -0.020544728
0001a0 8e 25 12 3c c4 d8 2a bd 76 d6 9c 3c 3a 66 22 3d
       0.008920087 -0.04171063 0.019145232 0.039648272
0001b0 76 cb 93 bc a7 5d fd bb f0 d8 a0 bc 5b 31 a3 bc
       -0.018041354 -0.0077321115 -0.019634694 -0.019920995
0001c0 31 66 ff 3c a3 b9 8a bb 20 02 37 bc b0 56 81 bc
       0.031176658 -0.0042335554 -0.01116994 -0.015788406
0001d0 e2 ca fb bb 59 b3 8a 39 40 b6 d1 bc 5b de e3 bc
       -0.0076840976 0.00026455036 -0.025599599 -0.027815988
0001e0 89 5b 42 3b 67 41 19 3c 57 80 4f 3b 7a 8e 0b bc
       0.002965661 0.009353972 0.003166219 -0.008517856
0001f0 f3 ae 65 3b 8b 9b 8c bc 4e 02 2e bd 0d 77 82 bb
       0.0035046905 -0.017164012 -0.042482667 -0.003981477
000200 f5 b5 43 bb 9c 16 c3 3c 2e e1 58 bc 87 3b 7c bc
       -0.0029863094 0.023814492 -0.013237281 -0.015395052
000210 fa 2f 41 3d 4a 4a b0 3b 79 e8 29 3c 88 a0 3f bc
       0.047164895 0.0053799497 0.010370367 -0.0116959885
000220 f3 b7 22 ba c2 31 1b 3d 41 e6 cb bc b3 1c 0b 3b
       -0.000620722 0.03788925 -0.024890067 0.0021226823
000230 2f 05 36 b9 51 62 c1 bb 1c c3 04 bd f7 d8 ff 3c
       -0.00017358804 -0.005901613 -0.032412633 0.031231387
000240 84 e6 ee bc 02 f0 d1 3c 86 c0 95 3c 0a e1 f7 bc
       -0.029162653 0.02562714 0.018280279 -0.030258674
000250 90 71 50 bd c5 e1 2d bd ed 80 0a 3d 2a a0 22 bc
       -0.05088955 -0.04245164 0.03381436 -0.009925881
000260 44 20 04 3c ad f2 a1 bc de 0a d1 3c 3a 5d 06 bc
       0.008064333 -0.019769037 0.025517877 -0.008200938
000270 1f 81 33 3d 36 ed 35 3c ef 05 31 3d e2 e4 c6 bc
       0.04382431 0.011103919 0.04321855 -0.024279062
000280 7a 8d 0d 3b d2 ca 0b 3d 39 b3 63 3d b1 75 05 bb
       0.002159922 0.03412897 0.055590842 -0.002036434
000290 ef 92 4d bc 18 c6 16 bd cb df 42 3d ea ab df 3c
       -0.012547239 -0.03681001 0.047576707 0.027303655
0002a0 c9 46 bc bb cb d1 72 bc e9 48 28 bd 95 63 1b bc
       -0.005745743 -0.014820526 -0.041085158 -0.009484191
0002b0 5f 1c 41 3c e4 70 0d 3d 0b 49 a6 3c de 12 7e bc
       0.011786549 0.03453149 0.020298501 -0.015507428
0002c0 f3 0d 1e bc 5a b3 b8 3b 60 d3 48 3d 70 83 47 bb
       -0.00964688 0.0056366147 0.049029708 -0.0030443333
0002d0 33 52 31 bd 68 6a e7 bc ae b7 a2 3c 00 da 72 3c
       -0.043291282 -0.02824898 0.019862976 0.014822483
0002e0 2b c5 a2 bc 0f 92 ad bc 88 82 39 3c ec 65 29 3b
       -0.019869408 -0.02118781 0.011322625 0.0025848104
0002f0 c0 3a 82 bc 0c 3d 73 3c e3 e1 16 3d 28 3c cc 3b
       -0.015897155 0.014846098 0.036836516 0.006232757
000300 36 21 01 3d 3b 9d 16 bb 8b 92 89 bb 25 20 8c 3d
       0.031525813 -0.00229819 -0.0041983775 0.068420686
000310 1b 1b 51 bc ab cf d2 bc a5 7c f2 bb 55 c6 04 bc
       -0.01276281 -0.02573379 -0.0074001127 -0.008103927
000320 98 14 19 3d 94 c7 48 bd df 40 83 3d 11 8e d3 3c
       0.037373155 -0.049018458 0.064088576 0.025824578
000330 0d b4 e3 39 7c ff c9 3c d4 d8 c5 3b f0 40 a5 bc
       0.00043430962 0.024657957 0.006037811 -0.020172566
000340 d5 fb 9c 3c ca ea 14 3d 43 2f aa 3c be ab 63 3d
       0.019163052 0.036356725 0.02077449 0.055583708
000350 96 75 59 bd 60 f4 7c b7 1f c6 0e bc d6 1e ad bc
       -0.053090654 -1.50772685e-05 -0.008714228 -0.021132868
000360 82 b6 a3 3c a2 4c 56 bc 52 92 18 ba 1c 12 14 bc
       0.019984487 -0.013079794 -0.0005820143 -0.009037521
000370 c5 63 48 bc 72 94 07 3d 86 47 aa 3c e2 61 52 bb
       -0.012230818 0.033100553 0.020786058 -0.00321018
000380 a7 a6 ad bc b9 3b 51 3c 6a 5e e2 3c e6 41 21 3c
       -0.02119763 0.012770587 0.02763291 0.009842372
000390 93 54 71 ba 2f a1 8f bc cb 75 64 bc 6a 82 d0 3b
       -0.0009206023 -0.017532913 -0.0139441 0.006363203
0003a0 e2 eb eb 3c f3 4c 31 bc 31 54 33 bc ca 6b 33 3c
       0.028799001 -0.010821569 -0.010945366 0.010950992
0003b0 3c 9d 30 3c 66 fc 27 3d fb 72 47 3d 53 33 66 bb
       0.010779675 0.04101219 0.04869364 -0.0035125806
0003c0 bf f2 e7 bc 74 d3 6b 3a 40 c5 c8 bc 69 19 97 bc
       -0.028313993 0.00089960475 -0.024508119 -0.018444734
0003d0 58 ac 35 3c ea 3e 5f 3c f5 81 7b 3c 17 32 91 3c
       0.011088453 0.01362584 0.015350808 0.01772408
0003e0 7a df 45 bd c5 dd 07 3b ae de f1 bb bd 9d 9d bc
       -0.048308827 0.002073155 -0.007381282 -0.019240255
0003f0 3f 89 9b bc 1e ef 23 3c 75 d2 03 3d aa 03 4c 3c
       -0.018986342 0.01000574 0.03218313 0.012452045

mod1.7.bias f4 [64]
000000 2b 4a 01 bd c6 22 9a bb fb 9d 04 3d 92 3a 8f bc
       -0.031564873 -0.0047038523 0.032377224 -0.017483983
000010 8b 90 53 3d 69 3b d3 bc cd 96 20 bc 0e 0a e5 3a
       0.05165152 -0.025785165 -0.009801579 0.001747431
000020 33 f5 8e 3c b9 9a 8e bc e6 e5 0b bd 71 b3 7e bc
       0.017450904 -0.017407762 -0.034154795 -0.015545712
000030 5b 7b f9 bc e1 fe f8 3c 83 8c 0b 3d b4 aa e2 3b
       -0.030454328 0.030394973 0.03406955 0.006917322
000040 4f 08 04 bd b4 7c 02 3d be 24 b0 bc 53 a3 a4 bb
       -0.032234486 0.031857207 -0.021501895 -0.0050243526
000050 8c 7d 79 3c 86 f7 a1 bb 1b ff 75 3d b4 e1 22 bd
       0.015227687 -0.004942837 0.06005774 -0.03976603
000060 90 2f 34 bd 27 6b b7 bc a2 ea ff 3c cb f8 94 bc
       -0.04399067 -0.022389961 0.031239811 -0.01818504
000070 6e 10 89 bc e1 5f da bc 2e c5 91 bc 8c ca 5e ba
       -0.016731467 -0.026657047 -0.017794218 -0.000849881
000080 b9 8e 99 bc 6f 5c 17 3d 92 ab 16 3c e6 61 d8 3b
       -0.018744813 0.036953386 0.009196179 0.0066034673
000090 0b 0b 39 bd a7 77 f5 3c 13 a0 8e bd ff bc ba bc
       -0.045176547 0.029964281 -0.069641255 -0.022795198
0000a0 57 45 36 3d e5 36 3b bc 5f 64 8c 3d 02 fa e6 bc
       0.04449972 -0.011426662 0.06855082 -0.028195385
0000b0 6a b3 f3 3c d1 83 dc bb 62 d2 30 3d a3 bd 68 bd
       0.029748637 -0.006729581 0.043169387 -0.056821477
0000c0 18 59 0a 3d 9b e6 07 3d 93 99 20 bb 60 50 f8 3c
       0.033776373 0.033178907 -0.00245056 0.030311763
0000d0 17 4d 2e 3d da 57 2c bc d9 88 ae bd e9 7c cd bb
       0.042553987 -0.010518992 -0.08522195 -0.006270994
0000e0 7f 9c 16 3d bf 81 8e bd c0 ba d4 bc fa f2 59 bc
       0.03677034 -0.06958341 -0.025967956 -0.013302559
0000f0 39 d4 91 ba da af 79 3b 19 6a 01 3d 48 3c 6b 3c
       -0.0011125869 0.00380992 0.031595323 0.014357634

mod1.8.weight f4 [10, 64]
000000 6d 08 11 3d 46 62 06 3e a7 08 68 3e 02 5f b1 3d
       0.035408426 0.13123426 0.2265955 0.086606994
000010 0e ee f4 bc 28 5e 3f 3e ec c7 50 bd f6 98 33 3e
       -0.02989867 0.18688262 -0.05097191 0.17538819
000020 fb bb fc 3d c0 5c c8 3d e9 a5 a1 3e 5e 4e 17 bd
       0.12340542 0.09783316 0.31571892 -0.03693997
000030 1b 98 f3 3d 64 72 35 be 15 8a e5 bd d3 5a 12 be
       0.11894246 -0.17719418 -0.11207978 -0.14292459
000040 fc 2a a7 3c 7e 9e 11 3d 19 b4 ae 3e 0e 62 b9 bd
       0.020406239 0.03555154 0.3412178 -0.090519056
000050 4e 85 17 be 66 76 e8 bd 48 f8 77 be 55 a9 6c 3d
       -0.14796945 -0.11350708 -0.24215806 0.057778675
000060 17 34 5f 3e 40 6b 93 3e 7b f3 85 be 1d 7d 94 be
       0.21797214 0.28792763 -0.26162323 -0.29001704
000070 1b 60 04 3e b7 f0 40 3e e3 74 1c 3b cc ff 98 bd
       0.12927286 0.18841825 0.002387338 -0.074706644
000080 f2 a1 9d 3e 84 6e e0 bd 00 6a 3f be a5 22 82 3b
       0.30787617 -0.10958579 -0.1869278 0.003971415
000090 91 6f 3c bd 5d 82 80 be 44 d5 74 3e fd fc 90 3d
       -0.046004836 -0.2509946 0.2390948 0.07079504
0000a0 54 58 09 3e b6 e5 95 3e ba 93 14 be e5 68 5a be
       0.13412601 0.29276818 -0.14509478 -0.21329077
0000b0 ec f3 c8 bd 65 8e 26 3e a0 e7 ae 3d 61 3a 64 be
       -0.098121494 0.16265257 0.08540273 -0.22287895
0000c0 a3 35 80 3d 1a 20 6a be 42 f1 5e bd 5d 34 54 3d
       0.062602304 -0.22863808 -0.0544293 0.05180775
0000d0 bb e6 1b 3e d2 da 83 be 73 6c 70 bd 22 22 0a 3d
       0.15224735 -0.25752884 -0.058697175 0.033723958
0000e0 09 9d 56 be 7c db 2a 3e a7 a1 a9 be bd f9 8c 3e
       -0.20958342 0.16685289 -0.33131143 0.27534285
0000f0 38 c8 5b 3b 63 45 a0 3d 7d 55 51 3e 6e 62 57 be
       0.0033536088 0.078257345 0.20442767 -0.21033642
000100 dc 3c 45 3d f0 fb 07 bd ae a0 32 be 4e fe 7e 3e
       0.048153743 -0.03319925 -0.17444107 0.24901697
000110 02 63 62 3d 1e 2d 19 3d e1 41 1c 3e 3c f3 74 3e
       0.055270202 0.037396543 0.15259506 0.23920912
000120 8a 70 90 3e 21 db a2 3e 90 c1 14 3d 98 b7 16 3e
       0.2821086 0.31807807 0.036317408 0.14718473
000130 07 fa 5a 3e 9c 3e a6 bc 77 5c ef bd 08 19 8f 3e
       0.2138444 -0.020293526 -0.11687558 0.27948785
000140 d3 a8 5f 3d 3c 3e a2 bd bd 51 53 be 28 a6 4e be
       0.054604363 -0.079220265 -0.2063665 -0.20180571
000150 ce 54 23 bd 4e 48 ef 3c 2d 6e 19 3e d1 55 58 3e
       -0.039875798 0.029209282 0.14983435 0.21126486
000160 55 a1 4b 3e 93 2a d4 bc 88 c6 c8 3d 78 c9 a6 3e
       0.19885762 -0.025899207 0.09803492 0.32575583
000170 07 50 c3 be 55 63 b2 be ac 7b 4c 3e ff e3 01 be
       -0.38146994 -0.3484141 0.19969052 -0.1268463
000180 dc 37 3a 3d 01 07 34 be 5a 0e 0b be eb ca 79 bc
       0.045463428 -0.17580797 -0.13579693 -0.015246133
000190 75 ec 9d 3e 08 39 0d be 49 92 98 3e ce 43 6c 3e
       0.30844465 -0.13791287 0.29799107 0.2307274
0001a0 b5 7e 1a be a1 ca 43 be d9 1d 9b be 39 ca ad 3e
       -0.15087397 -0.19120266 -0.3029621 0.33943346
0001b0 80 6f 05 3e 36 72 98 3e bc d4 41 be 86 ca 8f 3e
       0.13030815 0.29774636 -0.18928808 0.280842
0001c0 42 2e 7f 3e bd 4a 0f 3e 19 b0 a7 3c ef 58 4e bd
       0.2491999 0.13993354 0.020469712 -0.050377782
0001d0 39 ef 5a be 77 04 c4 bd c2 3d 01 3e 9f 94 8a bc
       -0.21380319 -0.09571164 0.12621215 -0.016916571
0001e0 6e c1 9a 3e 66 3f 08 3e f7 d2 1f be 27 b2 a4 3e
       0.302257 0.13305435 -0.1560782 0.3216717
0001f0 4d d2 7d 3e 1c 19 94 3d c0 95 d3 be 23 d2 57 bd
       0.24787255 0.07231352 -0.41325188 -0.052690636
000200 8e 6b 94 bd ff 4f ba bb d0 4a 33 3e 0c a8 83 bd
       -0.07247077 -0.005685806 0.17509007 -0.06428537
000210 44 c1 8a bd fb be 7b be 82 bc 85 bd 7b 85 82 be
       -0.06775144 -0.24584572 -0.06530096 -0.25492463
000220 96 a0 46 be 48 d4 42 3e 6d 7e 25 be d6 c5 2d be
       -0.19397196 0.19026291 -0.16161509 -0.1697
000230 85 2c 32 be 67 b9 ff 3c 3f 4b ee bd 27 43 dc bc
       -0.17399795 0.031216336 -0.11635446 -0.02688749
000240 b1 92 fa bc 00 8c 51 be 06 10 f8 bc ec c5 00 be
       -0.030587526 -0.20463562 -0.030281078 -0.12575501
000250 fd d7 b8 3d ce f7 3b be 92 7b 47 be c1 1c 80 bc
       0.090255715 -0.18356249 -0.19480732 -0.01563871
000260 86 6b 3b 3e db 72 c2 3d 75 a1 09 3b 16 e1 72 be
       0.18302736 0.09494563 0.0021000777 -0.23718676
000270 32 92 63 3e 80 e4 ab 3b 85 02 94 bc 5f 45 50 be
       0.22223738 0.005245745 -0.018067608 -0.20338963
000280 b7 f0 74 be a1 b4 30 be 2a fe 3b be ba 1b 94 3e
       -0.2391995 -0.17256404 -0.18358675 0.28927404
000290 1d 59 5b be 51 84 63 be 79 d5 46 be 9b 26 a9 be
       -0.21420713 -0.22218443 -0.19417371 -0.33037266
0002a0 0c 63 32 be 5d be 9d 3d b4 9b a7 3e e5 f2 07 3e
       -0.17420596 0.077023245 0.3273598 0.1327625
0002b0 27 b0 49 3e f8 44 2a bc a6 68 a3 3c 8a b5 6d be
       0.19696103 -0.01039242 0.019947361 -0.23213783
0002c0 b9 78 60 3e 5e cf 18 3e d9 b3 25 be 2c a9 41 3e
       0.21921052 0.14922854 -0.16181888 0.1891219
0002d0 e8 c6 2a 3e 91 4d 8e 3e 46 15 84 bd c2 5a 95 bd
       0.16677439 0.27793553 -0.0644937 -0.07292701
0002e0 78 02 14 be 5e da 73 3e cd cc 2c be 99 42 99 be
       -0.14454067 0.23813769 -0.16875 -0.29933622
0002f0 b5 6e 06 3e 77 1e 36 be 07 83 16 3e ee 3b 56 be
       0.13128169 -0.17785059 0.1469842 -0.20921299
000300 bf 88 e9 3d de 6c 1a be 8e e8 12 3e 07 65 86 bd
       0.11403035 -0.15080592 0.14346525 -0.06562238
000310 2f ff 32 be b4 09 82 be 0b 20 22 3e c0 74 9a be
       -0.17480157 -0.25398028 0.15832536 -0.30167198
000320 f8 ab 64 3c 45 38 74 bd 62 d5 9d bd a6 49 12 bd
       0.013957016 -0.059623975 -0.07706715 -0.035714768
000330 f6 f3 b7 3d 1a eb da bd 6d 54 da bd 4d 01 0a be
       0.08982079 -0.10689373 -0.10660634 -0.13477059
000340 0e e5 0d 3e 2f a2 f0 3d 85 20 a5 bd fb a9 13 3e
       0.13856909 0.11749684 -0.08062843 0.14420311
000350 e7 72 21 3e bf a7 bc 3d 99 b7 ac bd ed b4 51 be
       0.15766488 0.092116825 -0.08433456 -0.20479174
000360 dc b0 d5 bd 26 3c 4f 3e f7 b4 16 3e c6 65 69 bd
       -0.10434124 0.20237789 0.1471747 -0.056981824
000370 bb 54 eb 3d 09 27 75 3d 12 b1 9b bd 95 b6 90 3d
       0.114907704 0.05985168 -0.07602133 0.07066075
000380 43 25 4a be 81 e9 6e bd 3c 3b 24 be f8 aa 0e be
       -0.19740777 -0.058328155 -0.16038221 -0.13932407
000390 7c c7 7e bd dc 10 82 3e 6c e9 04 be c9 ff 77 3e
       -0.062201962 0.25403488 -0.12979668 0.24218668
0003a0 f3 93 6a be a9 e7 15 be 9a ed 29 3d 77 f7 3e be
       -0.22908 -0.14639153 0.04148636 -0.18649088
0003b0 71 b9 19 be 4b 9e dd 3d c0 86 59 3d c6 61 38 3e
       -0.15012147 0.108212076 0.053107023 0.18006048
0003c0 d0 41 44 3d eb 91 d2 3d 4d 7c 21 3e 54 7f 35 3c
       0.047914326 0.10281738 0.15770073 0.011077721
0003d0 6a 90 1e bd 40 e7 64 3d 17 70 69 3e 32 05 cb bd
       -0.038711943 0.0558846 0.22796665 -0.099131
0003e0 8c 02 0f bd 4d 1c 03 bd af c6 93 3e 63 01 09 3e
       -0.03491454 -0.03200941 0.2886252 0.13379435
0003f0 0d 39 da 3d d5 dc 21 be f4 28 10 3e 38 7d 25 3e
       0.10655413 -0.15806897 0.14078122 0.16161048

mod1.8.bias f4 [10]
000000 1a d6 92 bd 7d b2 26 3d be 0a 88 3b 1a 43 dd 3d
       -0.07169743 0.040697563 0.004151671 0.10803814
000010 f1 0f 4e 3e bb 82 4a be 1d 48 83 3d 0d a9 6a 3d
       0.20123269 -0.19776432 0.06410239 0.057290126
000020 1b 72 03 3d e6 52 6e bc
       0.03209124 -0.014546132
