network.pth (torch, 585095 bytes, 10 tensors)

mod1.0.weight f4 [32, 3, 5, 5]
0	0xbd8605ef	-0.065441005
1	0xbd1d1ddf	-0.038358565
2	0xbd031b0b	-0.032008212
3	0xbd8a9599	-0.06766815
4	0xbbbe7159	-0.005811852
5	0xbdab93a6	-0.08377771
6	0x3cf8f01c	0.03038793
7	0xbe1c0d89	-0.15239538
8	0xbe00b9ed	-0.12570925
9	0xbdca3d35	-0.098749556
10	0x3e431afc	0.19053262
11	0x3dbd4369	0.09241373
12	0xbda69ed2	-0.08135761
13	0x3d8516b4	0.06498471
14	0xbc65c0b7	-0.014022998
15	0x3cea9283	0.028634315
16	0x3e458fcd	0.19293137
17	0x3d4d19f0	0.050073564
18	0x3dc6f04a	0.097138
19	0x3ae3aa90	0.0017369557
20	0x3e01afca	0.12664714
21	0x3d9c85dc	0.07642719
22	0x3e16ad9b	0.14714663
23	0x3cf8b5cf	0.03036013
24	0xbca9a542	-0.020708684
25	0x3d9cc031	0.07653845
26	0xbe29fd5f	-0.1660056
27	0xbe002d00	-0.12517166
28	0x3d4790e1	0.04872215
29	0x3ca85905	0.02055026
30	0xbdc99a16	-0.09843843
31	0xbd6b30c9	-0.057419572
32	0xbe3599bc	-0.17734426
33	0xbe69e2a7	-0.22840367
34	0xbdb843c3	-0.089972995
35	0x3dae344c	0.085060686
36	0xbd8c4d76	-0.06850712
37	0x3d7c2174	0.06155534
38	0xbe158ec0	-0.14605236
39	0xbdbde9d4	-0.09273115
40	0x3e09e825	0.13467462
41	0xbc01f6a0	-0.007932335
42	0x3ce395b4	0.027781345
43	0xbd81ca9b	-0.06337472
44	0xbdead88f	-0.114670865
45	0x3deb9c03	0.11504366
46	0xbd948490	-0.07251847
47	0xbe01a270	-0.12659621
48	0xbbfa4c3f	-0.007638484
49	0xbd130d12	-0.035901137
50	0x3d7aa1e6	0.061189555
51	0xbd9e0b17	-0.07716959
52	0xbb93bfd2	-0.0045089507
53	0x3e0a433c	0.1350221
54	0x3e007449	0.1254436
55	0x3e174a0d	0.14774342
56	0xbc77944a	-0.015111038
57	0x3ca012cd	0.019540215
58	0xbe018f7c	-0.12652391
59	0xbdc4b916	-0.09605615
60	0x3e565035	0.20929034
61	0x3db8d326	0.09024648
62	0xbc1f6442	-0.009728493
63	0xbb5cb9ee	-0.0033680159
64	0xbd375c05	-0.04476549
65	0xbd03121e	-0.0319997
66	0x3df86e93	0.12130465
67	0xbd9de76c	-0.07710156
68	0xbd09d7ff	-0.033653256
69	0x3dddc1bf	0.1082797
70	0x3c9cb114	0.019127406
71	0x3c1b74c5	0.009488289
72	0xbc5445b5	-0.012956073
73	0xbdec77a2	-0.11546256
74	0xbc2c7b9c	-0.010527518
75	0xbd35b2c3	-0.044359934
76	0x3bc1ba72	0.0059121186
77	0x3d493342	0.04912115
78	0xbdd7fb43	-0.10545971
79	0xbdbb7d66	-0.09154777
80	0xbe0a7d47	-0.13524352
81	0xbd784b64	-0.060618773
82	0xbe0dde6d	-0.1385438
83	0xbd95b273	-0.07309427
84	0xbe5f66ea	-0.21816602
85	0xbdde7a24	-0.1086314
86	0x3d13df10	0.0361014
87	0x3db97b66	0.090567395
88	0x3e0060ec	0.12536973
89	0x3dfc492f	0.12318646
90	0xbdc0ac1e	-0.09407829
91	0xbe01e803	-0.12686162
92	0xbde3a4ee	-0.11115442
93	0xbcadedcd	-0.021231556
94	0xbdb00705	-0.08595089
95	0xbdc7c599	-0.09754486
96	0x3cf7b7be	0.030238982
97	0x3d516636	0.051122867
98	0xbd731183	-0.059342872
99	0xbd40bfa9	-0.04705778
100	0x3d8c2e1c	0.06844732
101	0x3dbdd1ea	0.092685536
102	0x3ccf37e9	0.025295215
103	0xbbb636b7	-0.0055607217
104	0x3cc8f365	0.024530122
105	0xbdae7e71	-0.085202105
106	0xbddd1180	-0.107943535
107	0xbe38af70	-0.18035674
108	0xbcdfe8eb	-0.027332744
109	0xbdd7aed7	-0.10531395
110	0x3e42445e	0.18971393
111	0xbafc4fdf	-0.0019249878
112	0x3e5199e4	0.20468861
113	0x3e79bbdb	0.24388067
114	0x3e4d5869	0.20053257
115	0x3d4ea711	0.050452296
116	0x3dda554e	0.10660802
117	0x3d91f4d3	0.07126775
118	0x3bfb2a96	0.0076649887
119	0x3e2637d9	0.16232242
120	0x3e059721	0.13045932
121	0xbd1e00cd	-0.038574982
122	0x3d4cd012	0.05000312
123	0x3d6e0883	0.058113586
124	0x3dcf6997	0.101275615
125	0xbc9e7055	-0.019340673
126	0xbc31cc09	-0.010851868
127	0x3b4ecbb0	0.0031554513
128	0x3d29e2d7	0.041476097
129	0xbdd38ce2	-0.10329606
130	0xbe1cea9a	-0.15323868
131	0xbe44c92f	-0.1921737
132	0xbe162302	-0.14661792
133	0xbe226869	-0.15860142
134	0xbe08522d	-0.13312598
135	0x3e004466	0.12526092
136	0x3d8401ee	0.064456806
137	0x3df15e65	0.117855825
138	0x3d443556	0.047902428
139	0x3ddd09e1	0.107929
140	0xbc7f18cd	-0.015569878
141	0x3a1dcfda	0.0006020047
142	0x3ca42c5c	0.020040683
143	0x394120ff	0.00018418206
144	0x3e0dd483	0.13850598
145	0x3d758fcf	0.0599516
146	0x3db9efbb	0.09078928
147	0x3de29fa4	0.11065605
148	0xbd21d124	-0.039506093
149	0xbdb8609b	-0.09002801
150	0xbe1ab915	-0.15109666
151	0xbd6cf4ed	-0.057850767
152	0x3d05b50d	0.032643367
153	0x3d0607c1	0.03272224
154	0x3da714c1	0.08158255
155	0xbd6717c6	-0.056419156
156	0x3d3b0f3b	0.04566882
157	0x396d4b1e	0.00022630065
158	0xbbb9948a	-0.005663459
159	0xbd83b523	-0.064310335
160	0xbd45f798	-0.048331827
161	0x3e0f4d71	0.13994385
162	0x3db89966	0.090136334
163	0x3e40643e	0.1878824
164	0x3e07ab55	0.13248952
165	0x3e233dfe	0.15941617
166	0x3c21cd9f	0.009875684
167	0x3e726d43	0.23674493
168	0x3dcc6747	0.09980636
169	0xbb003bc1	-0.0019566866
170	0x3da19fb5	0.0789179
171	0x3d9c6778	0.076369226
172	0x3cb8f957	0.022579832
173	0x3c842999	0.016133117
174	0x3dd44c5e	0.103661284
175	0xbdb41e58	-0.0879485
176	0xbd8172df	-0.06320738
177	0xbe1fd346	-0.15607938
178	0x3d248f78	0.040175885
179	0xbdbd56d5	-0.092450775
180	0xbe14bc93	-0.1452506
181	0xbde06813	-0.109573506
182	0xbe3d9b89	-0.18516363
183	0xbdaa322c	-0.08310351
184	0xbd8f3c95	-0.06993977
185	0xbdcba422	-0.09943415
186	0xbdaa75eb	-0.08323272
187	0xbe0d5c99	-0.13804854
188	0x3d80b82e	0.062851295
189	0xbdaef112	-0.08542074
190	0xbd6e0d66	-0.058118246
191	0x3df385a2	0.11890723
192	0x3d74ae82	0.059736736
193	0xbe05fcca	-0.13084713
194	0x3d280c8b	0.041027587
195	0x3d84ac81	0.06478215
196	0xbd871c82	-0.06597234
197	0xbdbe8f3b	-0.09304663
198	0xbda23b59	-0.07921476
199	0xbd491b2a	-0.04909817
200	0x3d518365	0.0511507
201	0x3d62b6fb	0.055350285
202	0x3da317d5	0.0796353
203	0x3ccedbd7	0.025251312
204	0x3b171578	0.0023053568
205	0xbd313593	-0.043263983
206	0xbd53092d	-0.051522423
207	0xbd667b58	-0.056269974
208	0xbdd9bc97	-0.10631674
209	0x3c873b4a	0.016507763
210	0x3dad3124	0.084566385
211	0xbd9249b4	-0.07142964
212	0x3bb2bdcb	0.005454754
213	0x3da0d0b2	0.078523055
214	0x3d967e77	0.0734834
215	0x3c41c8d8	0.01182767
216	0x3e1033e2	0.14082292
217	0xbd2df8e9	-0.042473707
218	0x3c957712	0.018245254
219	0xbdfb0975	-0.12257663
220	0x3d7b2727	0.061316635
221	0xbc1eb2c4	-0.009686176
222	0x3dcd27bd	0.10017345
223	0x3d623011	0.05522162
224	0xbe04c526	-0.12965831
225	0xbcb9e149	-0.022690432
226	0xbcfd55a4	-0.030924626
227	0xbcee279f	-0.029071627
228	0xbddf1abe	-0.108937725
229	0x3d0a2685	0.03372814
230	0x3e128865	0.14309843
231	0x3dfd6e13	0.123745106
232	0x3e0ab1f4	0.13544446
233	0xbd8135b9	-0.06309075
234	0x3b8b517a	0.004251656
235	0x3df7469e	0.12074016
236	0x3ddd5fac	0.108092636
237	0x3e03851e	0.12843749
238	0x3ce4e193	0.027939593
239	0xbbb51489	-0.0055261296
240	0xbd2482de	-0.040163867
241	0xbe51cd29	-0.20488419
242	0xbd8cfb6e	-0.06883894
243	0x3bc69b60	0.0060610026
244	0x3d3770a0	0.044785142
245	0xbe485052	-0.1956189
246	0xbe7a749f	-0.2445855
247	0xbe11adbc	-0.1422643
248	0xbc80cb36	-0.015721899
249	0xbd9c676d	-0.076369144
250	0x3d6c9287	0.057756927
251	0x3d4df685	0.050283927
252	0xbdaf66e7	-0.08564549
253	0x3be41962	0.0069610337
254	0x3d8e09d9	0.06935472
255	0x3e0bc518	0.13649404

mod1.0.bias f4 [32]
0	0xbc773256	-0.015087685
1	0xbd8f0bc5	-0.06984667
2	0xbdf14f72	-0.11782731
3	0xbec4e366	-0.3845474
4	0xbe787934	-0.24264985
5	0x3c93fbb5	0.01806436
6	0xbeaf39f5	-0.34223905
7	0x3d80deb5	0.06292478
8	0xbe527873	-0.2055376
9	0x3cef6848	0.02922453
10	0x3e960e22	0.29307657
11	0xbdcfbea2	-0.10143782
12	0xbdbb14c9	-0.09134824
13	0xbdc9c139	-0.098513074
14	0x3e875b97	0.26437065
15	0x3e420a29	0.18949188
16	0x3e224dc7	0.15849982
17	0x3e1dc881	0.15408517
18	0x3cbb634c	0.022874497
19	0x3cae2f4b	0.021262785
20	0x3e91a2ef	0.2844462
21	0x3d416252	0.047212906
22	0xbdd842e2	-0.10559632
23	0xbe382f0e	-0.179867
24	0xbe339b0c	-0.17539614
25	0x3c7becd4	0.015376288
26	0xbda81dd2	-0.08208813
27	0xbe95a8ba	-0.2923029
28	0x3c286500	0.0102779865
29	0xbe226961	-0.15860511
30	0x3bf0c058	0.007347148
31	0x3cb504f6	0.022097092

mod1.2.weight f4 [32, 32, 5, 5]
0	0x3ccae2a0	0.024766266
1	0xbc899cab	-0.016798338
2	0x3b7726b2	0.0037712273
3	0xbc49f54b	-0.012326549
4	0x3be33a13	0.006934413
5	0x3d52ea11	0.051492754
6	0xbcab6bf0	-0.020925492
7	0xbc4b4954	-0.0124076195
8	0x3c0c94c4	0.00858039
9	0x3d675b57	0.056483593
10	0x3d2ca6bb	0.042151194
11	0xbc2594e3	-0.010106298
12	0xbd4fa8f2	-0.05069823
13	0x3b4ddd88	0.003141256
14	0x3d161379	0.036639664
15	0x3d52241f	0.05130398
16	0x3c260f40	0.010135472
17	0xbca4b7f6	-0.02010725
18	0x3cc170d0	0.023613364
19	0x3cd69f62	0.026199047
20	0x3ce5df11	0.028060468
21	0x3bde225d	0.0067789988
22	0xbc505f4c	-0.012718033
23	0x3d273965	0.04082622
24	0x3c12988e	0.008947505
25	0xbbfbfe22	-0.007690207
26	0x3aca2992	0.0015423766
27	0xbcbcda44	-0.023053296
28	0xbc406cc0	-0.011744678
29	0xbb74d59f	-0.0037358773
30	0x3c242a17	0.010019801
31	0xbcd4aae4	-0.025960393
32	0x3d53dbf4	0.051723436
33	0xbbe947eb	-0.007119169
34	0x3c512ef1	0.012767539
35	0x3c0d5317	0.008625767
36	0x3d125955	0.035729725
37	0x3d3f8e27	0.046766426
38	0x3ca3e736	0.02000771
39	0x3c47e7e6	0.012201285
40	0xbc9a0b76	-0.018804293
41	0x3cd8b0d3	0.026451504
42	0x3cb36c2e	0.02190217
43	0x3cbe6fa9	0.023246603
44	0xbd0ddd21	-0.034634713
45	0x3d04709c	0.032333955
46	0x3cffd210	0.031228095
47	0xbb676445	-0.0035307568
48	0x3bb80e9e	0.005616977
49	0x3bd2910b	0.006425982
50	0xbc8089ab	-0.015690645
51	0x3bfbbe27	0.00768258
52	0x3c737c5e	0.014861194
53	0xbbdb8a3a	-0.0066998275
54	0x3bf6558c	0.007517522
55	0x3c86c706	0.016452324
56	0x3a2c4378	0.0006571333
57	0x3c7c4173	0.015396464
58	0x3d12b0e2	0.03581322
59	0xbbc6b977	-0.0060645896
60	0xbc31d296	-0.01085343
61	0x3d1588b6	0.03650733
62	0x3cd9c2b2	0.026582096
63	0x3baa4250	0.0051958933
64	0x3cb5f71a	0.022212554
65	0xbbc90699	-0.0061348197
66	0x3b9075cc	0.0044085737
67	0x3d45a5d9	0.048253868
68	0xbc9e1a9d	-0.0192998
69	0xbc11f440	-0.008908331
70	0xbbb1ff15	-0.0054320195
71	0x3cedf48c	0.029047273
72	0x3c6c072e	0.014406009
73	0x3d3951d9	0.04524407
74	0x3c775c11	0.015097634
75	0xbd7e83a2	-0.062137254
76	0xbd4f389a	-0.05059109
77	0x3c0161a1	0.007896812
78	0xbc38c52e	-0.01127748
79	0xbc82470b	-0.015903017
80	0xbc75563a	-0.014974171
81	0xbc405025	-0.011737858
82	0xbc92ae2d	-0.01790532
83	0x3bebdd00	0.007197976
84	0x3c595f22	0.01326731
85	0xbcd06f71	-0.025443764
86	0xbc8fd96a	-0.017559726
87	0xbc1f46bc	-0.009721454
88	0xbb8cbc24	-0.004294889
89	0x3d24aaa3	0.040201794
90	0xbc005ed2	-0.007835107
91	0xbcdd70ca	-0.027031321
92	0x3b1faa50	0.0024362989
93	0x3c87f348	0.016595498
94	0x3d29773c	0.041373476
95	0x39fb9220	0.00047983322
96	0x3c898894	0.016788758
97	0x3cca0399	0.024659919
98	0x3cfc213d	0.030777568
99	0xbca54247	-0.020173205
100	0xbca4b40f	-0.02010539
101	0x3cc6f11c	0.024284892
102	0x3d09acb7	0.03361198
103	0x3c667946	0.014067
104	0x3be5dbde	0.0070147356
105	0xbcf03fbf	-0.029327272
106	0x3cb83f1a	0.022491027
107	0x3c1e562d	0.009664101
108	0xba240455	-0.0006256749
109	0xbc5c5004	-0.013446812
110	0x3cd3129a	0.025765706
111	0x3d275fd8	0.040862888
112	0x3ce5265a	0.027972389
113	0x3d21740a	0.039417304
114	0xbc626bf8	-0.013819687
115	0x3c230bf8	0.009951584
116	0x3d57c5ae	0.052678756
117	0x3d6ff507	0.058583286
118	0xbc9d60e5	-0.019211242
119	0xbba64987	-0.005074683
120	0x3d42a18b	0.04751734
121	0x3d2f3166	0.04277172
122	0x3ce943f4	0.028474785
123	0xbca5f5cf	-0.020258812
124	0x3c4d3886	0.012525683
125	0x3beea289	0.0072825593
126	0x3b5b47b8	0.0033459496
127	0xb9dbb457	-0.000419053
128	0x3be3a37d	0.0069469796
129	0x3af0a2ee	0.0018359104
130	0x3b732a00	0.0037103891
131	0x3cee6e8d	0.02910545
132	0xbc57aa8c	-0.01316322
133	0xbb9df892	-0.0048208917
134	0xbc465324	-0.012104783
135	0x3c6e8fc1	0.014560641
136	0x3c306dfc	0.01076841
137	0xbc6ee198	-0.014580153
138	0x3c9184ed	0.01776358
139	0xbd27004f	-0.04077178
140	0xbc240cbf	-0.0100128045
141	0x3cbb1b33	0.022840118
142	0xbc452506	-0.012032753
143	0x3d0adfb2	0.03390474
144	0x3c18c015	0.00932314
145	0x3c865a4e	0.016400483
146	0x3c5c3c24	0.013442073
147	0xbc8d3349	-0.017236369
148	0xbcd0b511	-0.025476964
149	0xbc791cde	-0.015204636
150	0xbcdd7a3f	-0.02703583
151	0x3b5e15c5	0.0033887487
152	0x3c1a1e4b	0.0094066365
153	0x3ce761f5	0.028244952
154	0x3c983d06	0.018583786
155	0xbd051e67	-0.032499697
156	0x3c4705ca	0.012147376
157	0x3c23c9a4	0.009996805
158	0x3cef0e53	0.029181635
159	0x3d0ff1da	0.035142757
160	0xbcd7b750	-0.026332527
161	0xbd35a20f	-0.044344004
162	0x3c458408	0.0120554045
163	0xbbe2725d	-0.006910606
164	0x3c49d387	0.012318498
165	0x3b2651b7	0.0025378296
166	0xbd2020c5	-0.03909375
167	0xbd2011a7	-0.039079335
168	0x3c89c999	0.016819762
169	0xbcbc9f45	-0.023025164
170	0x3d2d86a8	0.042364746
171	0xbbb0377b	-0.0053777075
172	0x3d266d49	0.040631566
173	0x3d77fe3b	0.060545187
174	0x3d845b28	0.06462699
175	0x3bc1b887	0.00591189
176	0x3d72b8ac	0.059258148
177	0x3cb3206b	0.021866044
178	0xbcfae186	-0.030625116
179	0xbc1bec76	-0.009516826
180	0xbb908f39	-0.0044116047
181	0x3d7ff83a	0.062492587
182	0x3c266ffe	0.010158537
183	0xbcb07da2	-0.021544281
184	0xbc496c05	-0.01229382
185	0x3c8364b0	0.016039222
186	0x3d094d90	0.033521235
187	0x3ccd3937	0.025051696
188	0xbd43f4ff	-0.04784107
189	0xbc574fee	-0.013141615
190	0x3d25de2c	0.040495083
191	0x3d3270ad	0.043564487
192	0x3c6ff9d8	0.01464697
193	0xbce7d2e4	-0.028298803
194	0x3ce789f2	0.02826402
195	0x3c1c3ed8	0.0095364675
196	0x3cd8db7e	0.02647185
197	0xbc9df7b4	-0.019283153
198	0xbccaa23f	-0.024735568
199	0xbbcdfbba	-0.0062861117
200	0x3c77714c	0.015102696
201	0xbcab0a66	-0.020878982
202	0x3cc302fa	0.02380513
203	0x3a09dd16	0.00052590796
204	0x3cf456c8	0.029826537
205	0x3c032b1b	0.008005883
206	0xbccd14ac	-0.025034271
207	0xbd112b7b	-0.035441857
208	0xbd0731ee	-0.0330066
209	0x3c9fb3f0	0.01949498
210	0xbcbd8ac2	-0.023137454
211	0xbd4a8d0a	-0.04945091
212	0xbd0b26d1	-0.033972565
213	0xbc6299a2	-0.013830574
214	0x3cef7465	0.029230306
215	0xbcede28a	-0.029038686
216	0xbd2a4ef2	-0.041579194
217	0x3b6a3594	0.0035737501
218	0xbba99a93	-0.0051758974
219	0x3d34d2b3	0.04414625
220	0xbd0b087a	-0.03394363
221	0x3cba1c20	0.02271849
222	0x3cc25f02	0.023726944
223	0x3c0d7ebb	0.008636172
224	0xbb40073c	-0.0029301187
225	0x3c92a3e9	0.017900424
226	0xbb3c9de3	-0.0028780631
227	0x3ac95980	0.0015361756
228	0x3c3a6b52	0.011378126
229	0xbcc03813	-0.023464238
230	0x3cb20808	0.021732345
231	0x3ce1c0a1	0.027557673
232	0x3cf3b0a6	0.029747318
233	0x3c913b8a	0.017728586
234	0xbcc1bbbb	-0.023649087
235	0x3ccc4714	0.024936236
236	0x3d816c09	0.06319434
237	0xbbc59fb5	-0.0060310015
238	0x3b59509f	0.0033159626
239	0xbc8393ab	-0.016061625
240	0x3d6a5e79	0.057219002
241	0x3b6b4972	0.003590193
242	0xbc62adcb	-0.013835381
243	0xbc269d77	-0.0101693785
244	0xbc85d681	-0.016337635
245	0xbb720a91	-0.0036932568
246	0xbc8ad915	-0.016949216
247	0xbb45cad9	-0.003018072
248	0xba2c2572	-0.0006566859
249	0xbd29ec21	-0.041484956
250	0x3be4c623	0.0069816275
251	0xbcc9db14	-0.024640597
252	0xbc501340	-0.012699902
253	0x3afb21f9	0.0019159905
254	0xbd4eaf2b	-0.050460022
255	0x3bcb4721	0.0062035476

mod1.2.bias f4 [32]
0	0xbe5a428b	-0.21314447
1	0xbd95835c	-0.073004454
2	0xbe1f39c5	-0.15549381
3	0xbdb67144	-0.089083225
4	0xbd7da833	-0.061927985
5	0xbe0c8eb8	-0.13726318
6	0xbdb24048	-0.08703667
7	0x3cfc1e35	0.030776123
8	0xbb1e3534	-0.0024140598
9	0x3c033ed9	0.0080105895
10	0x3d0770f8	0.03306672
11	0xbd0cca12	-0.034372397
12	0xbdea5903	-0.11442759
13	0xbd916a31	-0.071003325
14	0xbe05806c	-0.1303727
15	0xbe31adf5	-0.17351516
16	0xbe4163d2	-0.18885735
17	0xbdf20496	-0.11817281
18	0xbd167b92	-0.03673894
19	0xbdb0325b	-0.086033545
20	0xbd07b52c	-0.033131763
21	0x3bbe1795	0.005801151
22	0xbc61f13e	-0.013790427
23	0x3d0fb1fc	0.03508185
24	0x3c007cd6	0.007842263
25	0xbdd0863b	-0.101818524
26	0xbb903e70	-0.0044019744
27	0xbdd4f456	-0.10398166
28	0xbd07f9f1	-0.033197347
29	0xbe04b1e5	-0.12958486
30	0xbd97ed2d	-0.074182846
31	0x3c9b1849	0.018932479

mod1.4.weight f4 [64, 32, 5, 5]
0	0x3d01c716	0.031684004
1	0x3cea5605	0.02860547
2	0xbc681c64	-0.014166925
3	0x3c9d7296	0.019219678
4	0x3b1a486d	0.0023541704
5	0x3bd3e376	0.0064663244
6	0x3d134bcd	0.03596096
7	0x3d0c97e4	0.03432454
8	0xbd0ad585	-0.033895034
9	0xbd1078d4	-0.03527148
10	0xbd329487	-0.043598678
11	0xbca6cf5b	-0.020362547
12	0x3c222982	0.009897592
13	0x39f088bb	0.0004587824
14	0x3d84d9c7	0.0648685
15	0xbc37a28a	-0.011208186
16	0x3bf2b0ad	0.0074063153
17	0xbc7b7ac3	-0.015349093
18	0xbd365c43	-0.04452158
19	0x3c4a160c	0.012334358
20	0x3d4462a9	0.047945652
21	0xbcfa2b20	-0.030538142
22	0xbca1a6e5	-0.019732902
23	0xbd4c975a	-0.049949028
24	0xbd4d83fc	-0.0501747
25	0xbcd7ba1c	-0.026333861
26	0xbbec8e86	-0.0072191386
27	0x3c2ab670	0.010419473
28	0x3c25172e	0.010076327
29	0xbd1c5de0	-0.038175464
30	0x3d19c80d	0.0375443
31	0x3c752c5c	0.014964189
32	0xbc01a678	-0.007913224
33	0x3c91c790	0.017795354
34	0xbd078f92	-0.033095904
35	0xbd2adb65	-0.041713137
36	0x3ba448ad	0.0050135464
37	0xbcdf39af	-0.027249185
38	0xbc172e1e	-0.009227304
39	0xbb5d97c8	-0.0033812393
40	0xbbbf220a	-0.005832915
41	0xbd221dce	-0.039579205
42	0x3c5a06fd	0.01330733
43	0xbb4f4add	-0.0031630315
44	0x3d75f162	0.060044654
45	0x3d088615	0.033330996
46	0x3ba5412d	0.00504317
47	0xbd4b3180	-0.049607754
48	0x3c0e2eca	0.008678148
49	0xbc625a1d	-0.01381543
50	0xbc6f04ba	-0.014588529
51	0xb97c648a	-0.00024070046
52	0x3d1e18eb	0.038597982
53	0x3c37b2ac	0.011212032
54	0x3cf5ebc2	0.030019645
55	0x3c155cd5	0.009116371
56	0x3cef85d3	0.029238617
57	0x3d340560	0.04395044
58	0x3d02c5f3	0.03192706
59	0x3d308af4	0.043101266
60	0xbd22ed05	-0.03977682
61	0xbc99bd21	-0.018766942
62	0xbca74b7e	-0.02042174
63	0x3cd05511	0.025431188
64	0x3cbf1848	0.023327008
65	0xbca56b22	-0.020192686
66	0xbd881bfa	-0.06645961
67	0x3c06a7d8	0.008218728
68	0x3ca0eedb	0.019645145
69	0x3d39e655	0.045385677
70	0x3c182fbe	0.009288726
71	0xbcb9a00b	-0.022659322
72	0xbd3d7e08	-0.04626277
73	0x3d07e4c6	0.03317716
74	0x3cbad37c	0.022805922
75	0x3bdebbcf	0.006797291
76	0x3d1c616c	0.038178846
77	0x3d4668a4	0.048439637
78	0x3d3d678b	0.046241324
79	0x3c17ef21	0.009273321
80	0xbd394d6b	-0.045239847
81	0xbd05ecd9	-0.03269658
82	0x3a523d71	0.000802002
83	0x3c8ff31f	0.017571984
84	0xbc1b1ba9	-0.009467044
85	0xbc6bcf9a	-0.014392758
86	0xbcc6c3d1	-0.024263294
87	0xbd0f08f5	-0.03492065
88	0xbcdf5029	-0.027259903
89	0xbd044523	-0.032292496
90	0xbbaa1996	-0.0051910384
91	0xbbb2c02e	-0.0054550385
92	0xbd087cf5	-0.033322293
93	0xbd482f0d	-0.048872996
94	0xbd31a0b4	-0.04336615
95	0xbc8d5475	-0.017252186
96	0x3ba1d14d	0.0049382807
97	0xbb3b2acf	-0.0028559451
98	0xbc3892c0	-0.011265457
99	0xbd56b4ea	-0.052418627
100	0xbd5e4580	-0.0542655
101	0xbd041398	-0.03224525
102	0xbc2061af	-0.009788915
103	0xbd0c5e74	-0.034269765
104	0x3c91ff3c	0.0178219
105	0xbce6972c	-0.028148256
106	0x3c2d3059	0.010570609
107	0x3cd1f994	0.025631703
108	0x3d46d7ce	0.04854565
109	0x3d84f170	0.06491363
110	0x3b9029d9	0.00439952
111	0xbbc034c8	-0.005865667
112	0xbd78a573	-0.06070466
113	0x3cb4866d	0.022036755
114	0x3c57f8f3	0.013181913
115	0x3d10378d	0.035209227
116	0x3d190766	0.03736057
117	0xbd078175	-0.033082444
118	0xbd66d6e1	-0.05635727
119	0xbd162641	-0.036657576
120	0x3c7ad321	0.015309126
121	0x3d5801fd	0.05273627
122	0x3cb39967	0.021923734
123	0xbd0af936	-0.033929072
124	0xbc8706b0	-0.016482681
125	0x3afdd629	0.0019366193
126	0x3ba19a35	0.004931713
127	0x3bd127e6	0.00638293
128	0x3cce6183	0.025192982
129	0x3b0ed97d	0.0021797114
130	0x3bbea689	0.0058181924
131	0x3b671c35	0.0035264615
132	0x3c72e166	0.014824247
133	0xbcea21a0	-0.028580487
134	0xbd134303	-0.03595258
135	0xbca145a4	-0.019686528
136	0x3cc173bb	0.023614755
137	0x3cd459ae	0.025921669
138	0xbc832b50	-0.016011864
139	0x3c2ac36c	0.010422569
140	0x3bbb83fe	0.005722522
141	0x3cc9730e	0.024590995
142	0x3d311821	0.0432359
143	0x3c256bf2	0.010096537
144	0xbc11b8e2	-0.008894177
145	0xbc1b7f05	-0.009490733
146	0xbd4fcdb4	-0.050733283
147	0xbcd0ebcf	-0.025503067
148	0x3c537e23	0.012908491
149	0xbccdcf76	-0.02512334
150	0xbc8a9dd6	-0.016920965
151	0xba49e3ab	-0.00077014667
152	0xbc62bbb7	-0.0138387
153	0x3c1507cc	0.009096097
154	0x3d44fcd3	0.048092674
155	0x3c52d32e	0.012867732
156	0x3c375901	0.011190654
157	0x3d4b206d	0.04959147
158	0xbbcbe6ee	-0.0062225973
159	0x3cf1cf44	0.029517777
160	0xbd2522a0	-0.040316224
161	0x3cc3eac4	0.023915656
162	0x3d4ca14d	0.049958516
163	0x3cd671a4	0.026177235
164	0x3c625176	0.013813367
165	0xbbd894d6	-0.0066095395
166	0x3c9063b0	0.01762566
167	0x3c897ac4	0.016782172
168	0xbc2f1522	-0.010686191
169	0x3bc5cbb0	0.0060362443
170	0x3c621e4a	0.013801167
171	0xbcbe85df	-0.023257194
172	0xbc0eadbe	-0.008708416
173	0xbc45036f	-0.012024744
174	0xbbb618a6	-0.0055571375
175	0x3cd0962c	0.025462233
176	0x3c92f19c	0.017937474
177	0xbc03b99a	-0.008039856
178	0x3c173871	0.009229765
179	0xbcc3a060	-0.023880184
180	0x3caf5b3e	0.021405812
181	0xbd15599f	-0.036462422
182	0xbd019fb8	-0.03164646
183	0xbb9d2f64	-0.004796909
184	0x3b93e278	0.004513081
185	0xbb911681	-0.0044277315
186	0xbbda4824	-0.006661432
187	0xbd9674f6	-0.07346527
188	0xbcd881b2	-0.026429031
189	0x3c495237	0.012287668
190	0x3c5b092a	0.013368884
191	0x3cef1d7d	0.029188866
192	0xbd000b7b	-0.03126095
193	0xbccdd4a5	-0.02512581
194	0xbc22bb3b	-0.009932335
195	0x3c38dbaa	0.011282841
196	0x3c28f08d	0.010311258
197	0xbcb74e46	-0.02237619
198	0x3a47a395	0.0007615623
199	0xbb6a52b3	-0.003575486
200	0xbc82f054	-0.015983738
201	0xbd18a906	-0.03727057
202	0xbc09278e	-0.008371247
203	0xbcf8fb5a	-0.030393291
204	0xbc12bbbc	-0.008955892
205	0xbcc2e311	-0.023789914
206	0xbdab207d	-0.08355806
207	0x3c40015d	0.011719075
208	0xbcea3cc1	-0.028593423
209	0x3c95b502	0.018274788
210	0xbc94bcbe	-0.018156406
211	0xbdb841d4	-0.08996931
212	0xbd6b97c8	-0.057517797
213	0xbcb1d8fb	-0.02170991
214	0x3cb5cb64	0.02219171
215	0x3c6cd8a1	0.014455945
216	0x3cc8c3f1	0.024507495
217	0xbb95c8f4	-0.0045710746
218	0xbd5725ca	-0.052526273
219	0xbd76b35d	-0.060229648
220	0xbc251c11	-0.010077492
221	0x3c006303	0.007836106
222	0x3d36ba43	0.044611227
223	0x3d0513be	0.03248953
224	0xbd78c508	-0.06073478
225	0x3d091c66	0.03347435
226	0x3c779ba4	0.015112791
227	0x3b04c1f1	0.00202572
228	0xbc8be5b3	-0.017077303
229	0xbcec7ae7	-0.028867198
230	0xbc82afc7	-0.015952958
231	0xbb87a7ba	-0.0041398676
232	0xbb921b03	-0.0044587865
233	0x3caffc49	0.021482604
234	0xbd4f03d4	-0.05054076
235	0xbcca880f	-0.02472308
236	0xbd4c5d4f	-0.049893674
237	0xbcbaa54f	-0.022783903
238	0x3cc5cfa4	0.024146862
239	0x3c2e1591	0.010625259
240	0xbd10240f	-0.03519064
241	0x3cea9b46	0.028638493
242	0xbd6ec54f	-0.058293637
243	0x3c73b1d8	0.014873944
244	0xbc7014db	-0.01465341
245	0xbd8729f1	-0.065997966
246	0xbc8a0c37	-0.016851528
247	0x3cd29683	0.025706535
248	0xba2626b7	-0.00063381664
249	0xbcb836e6	-0.022487115
250	0xbb8c50c0	-0.004282087
251	0x3ca4661b	0.020068219
252	0xbcceece2	-0.025259439
253	0xbc670fc2	-0.014102878
254	0xbc83cf61	-0.016090097
255	0xbd05af74	-0.03263803

mod1.4.bias f4 [64]
0	0xbdf43e9b	-0.119260035
1	0xbdf491e8	-0.11941892
2	0xbda84c4e	-0.08217679
3	0xbddeb57d	-0.1087446
4	0xbd25a4b4	-0.040440276
5	0xbc3f0f84	-0.011661414
6	0x3cade661	0.021228017
7	0xbd3a8345	-0.045535345
8	0xbce332e8	-0.027734235
9	0xbdd2409b	-0.10266229
10	0xbd758a52	-0.059946366
11	0xbdb6034d	-0.08887348
12	0xbd3ed9a9	-0.046594296
13	0xbd4dcd9b	-0.05024491
14	0xbd408e7c	-0.047010884
15	0xbdc62342	-0.09674694
16	0xbcb9fd00	-0.022703648
17	0xbc9c2ab7	-0.019063337
18	0xbd0352db	-0.03206144
19	0xbbd10304	-0.0063785333
20	0xbd8928e2	-0.06697251
21	0xbd47a45f	-0.04874074
22	0xbc92f4b1	-0.017938944
23	0xbc485164	-0.012226436
24	0xbdaba743	-0.08381512
25	0xbdab1b37	-0.083548
26	0xba5469be	-0.0008102915
27	0x3c8512cb	0.016244313
28	0xbd7b5a9a	-0.0613657
29	0xbd1ae578	-0.037816495
30	0xbde6f5ff	-0.11277389
31	0xbdd53a3f	-0.104115
32	0xbd6c0a86	-0.057627223
33	0x3b835070	0.0040073916
34	0xbd64bff2	-0.055847116
35	0xbdbf8eac	-0.093533844
36	0xbd2f29e2	-0.042764552
37	0xbc105ce1	-0.008811207
38	0xbd305399	-0.043048475
39	0x3bf0734c	0.007337963
40	0xbd67e9c6	-0.056619428
41	0xbdd05a41	-0.101734646
42	0xbd7c7ef8	-0.061644524
43	0xbd2d8e53	-0.04237206
44	0xbd383fc8	-0.0449827
45	0xbd8b9c92	-0.06816973
46	0xbd63e83d	-0.0556414
47	0xbd1ebfc1	-0.03875709
48	0xbce57cc3	-0.028013593
49	0xbd4e98d6	-0.050438724
50	0xbd81be7e	-0.063351616
51	0xbcaab94a	-0.020840306
52	0x3b441a16	0.0029922775
53	0xbdba689a	-0.091019824
54	0xbc9351d5	-0.017983356
55	0xbd0513fa	-0.032489754
56	0xbda1d76f	-0.07902419
57	0xbd6861d4	-0.05673392
58	0xbc8635d5	-0.016383091
59	0xbd52fe3e	-0.051511995
60	0x3c83386b	0.016018113
61	0xbdee373c	-0.11631629
62	0xbc9ff7bf	-0.019527314
63	0x3ba32fb9	0.004980054

mod1.7.weight f4 [64, 1024]
0	0x3c25c28e	0.010117186
1	0x3c300be2	0.010745021
2	0xbcb41c57	-0.02198617
3	0xbd1d5215	-0.038408358
4	0xbd0a4467	-0.03375664
5	0xbcdc6644	-0.026904233
6	0xbcac8ece	-0.021064188
7	0x3ae8483d	0.0017721724
8	0x3d295f3f	0.0413506
9	0x3d044410	0.032291472
10	0xbb1e7b10	-0.0024182238
11	0x3c7bcd67	0.015368796
12	0x3bcc95b0	0.00624343
13	0xbd3494ef	-0.044087347
14	0xbca6a46f	-0.02034208
15	0x3b1afbdd	0.0023648657
16	0xbc372b31	-0.011179731
17	0xbcc83a51	-0.02444187
18	0xbb997543	-0.004683168
19	0xbcd7b9ad	-0.026333654
20	0x3beb7783	0.0071858778
21	0x3bf689dc	0.0075237583
22	0x3ad33d97	0.0016116378
23	0x3c429d69	0.01187835
24	0x3cbc3eca	0.022979159
25	0x3c9e7882	0.019344572
26	0x3cb6618f	0.022263316
27	0x3d1d9fe7	0.038482573
28	0x3d09b4c3	0.033619653
29	0xbb57c377	-0.0032922903
30	0x3d0fbf02	0.03509427
31	0x3cc8aa68	0.024495319
32	0xbc0f67f8	-0.008752815
33	0x3c0c434b	0.008560966
34	0xbc123a34	-0.0089250095
35	0xbbdc5ac3	-0.006724687
36	0xbcacfed5	-0.021117607
37	0xbc2fca0e	-0.010729326
38	0xbc7ab38a	-0.0153015945
39	0x3d203e74	0.03912206
40	0x3b129abb	0.0022370059
41	0x3cee35fe	0.02907848
42	0x3c264d56	0.010150274
43	0x3c312023	0.010810885
44	0x3c9c4c10	0.019079238
45	0xbc477075	-0.012172808
46	0x3c139507	0.009007699
47	0xbb687cf4	-0.0035474868
48	0xbaf01e3b	-0.0018319556
49	0x3d376c67	0.044781115
50	0xbc5712a3	-0.013127002
51	0x3c94800b	0.018127462
52	0xbb9eaf0d	-0.004842645
53	0xbab78252	-0.001400063
54	0xbcabeebb	-0.020987859
55	0x3c1f9fbd	0.009742674
56	0x3c31cd0d	0.010852111
57	0x3d3a18d8	0.04543385
58	0xbc285503	-0.010274175
59	0x3cae4c76	0.021276694
60	0xbb996268	-0.0046809204
61	0xbcf790dc	-0.030220442
62	0xbb391653	-0.0028242066
63	0x3b35d9ca	0.002774822
64	0x3c950758	0.018191978
65	0xbc570340	-0.013123333
66	0x3d03c5ff	0.032171246
67	0xbcd9aeb8	-0.02657257
68	0x3b897971	0.004195385
69	0xbd46c925	-0.04853167
70	0xbc8d6cbd	-0.017263765
71	0xbc85883f	-0.016300319
72	0x3ce05ce0	0.027388036
73	0xbca4e510	-0.020128757
74	0x3c62c307	0.013840443
75	0x3c8e2d28	0.017355517
76	0x3c849bc4	0.016187556
77	0x3c53a763	0.012918326
78	0x3b716240	0.0036832243
79	0xbc742de5	-0.01490352
80	0xbcdd4df7	-0.027014716
81	0x3d104a71	0.035227243
82	0xbcca9057	-0.02472703
83	0x3d421ec3	0.047392618
84	0xbcbfa7a7	-0.023395373
85	0x3b907217	0.004408132
86	0x3cce3342	0.025170926
87	0x3d2abb60	0.0416826
88	0xbcd2e16a	-0.025742251
89	0xbd1cf730	-0.038321674
90	0x3c3a01b9	0.01135295
91	0xbd41b5bc	-0.047292456
92	0x3b7873a6	0.0037910729
93	0x3c1fbe40	0.009749949
94	0x3b851f4e	0.0040625697
95	0xbcd4625e	-0.025925811
96	0x3cd69d03	0.026197916
97	0x3b8dfed2	0.0043333555
98	0xbbd73a07	-0.0065681967
99	0xbcf5d658	-0.030009434
100	0x3c94d556	0.018168133
101	0xbc40dc4f	-0.011771276
102	0xbd02e72d	-0.031958748
103	0xbca3d275	-0.019997815
104	0x3c51bb34	0.01280098
105	0xbd1bad32	-0.03800697
106	0x3c99cd8a	0.018774766
107	0x3d18b50c	0.037282035
108	0xbcbb063e	-0.022830125
109	0xbc1581de	-0.009125201
110	0xbc96fa52	-0.018429909
111	0xbc56f847	-0.013120717
112	0x3c927815	0.017879525
113	0x3ab26f9e	0.0013613587
114	0xbc9842b2	-0.01858649
115	0xbbd884dd	-0.0066076354
116	0x3a42a40e	0.0007424959
117	0xb9e3ff3e	-0.00043486984
118	0xbcd72ac7	-0.026265515
119	0xbce44351	-0.02786413
120	0xbb7d77f0	-0.0038676225
121	0x3c37ee67	0.011226273
122	0x3bfc1ad5	0.0076936283
123	0x3a5cf55e	0.00084288965
124	0xbb84d11e	-0.004053249
125	0xbc252e49	-0.010081836
126	0xbcea0f7a	-0.028571833
127	0xba344932	-0.0006877362
128	0x3c254d51	0.010089234
129	0x3c823c46	0.015897881
130	0xbc3e1c35	-0.011603405
131	0xbc712d23	-0.014720234
132	0x3d35f352	0.0444215
133	0x3c549747	0.01297552
134	0x3c27d296	0.010243079
135	0xbc1c64c2	-0.009545507
136	0x3b183863	0.0023226968
137	0x3d1bc30c	0.038027808
138	0xbc859658	-0.016307041
139	0x3c01ee64	0.007930372
140	0xbbea6ac7	-0.007153842
141	0xbb63eb73	-0.003477779
142	0xbd043eac	-0.03228633
143	0x3d1fe0f7	0.039032903
144	0xbc94be7d	-0.018157238
145	0x3cdb9f2e	0.026809301
146	0x3ca7399a	0.020413209
147	0xbcd930fd	-0.026512617
148	0xbd2a57af	-0.041587528
149	0xbd26005c	-0.040527686
150	0x3ce0d498	0.027445123
151	0xbc09779d	-0.008390334
152	0x3c43a429	0.011940994
153	0xbcacedd6	-0.021109503
154	0x3ca99552	0.020701084
155	0xbbc99d9b	-0.0061528212
156	0x3d2821eb	0.04104797
157	0x3c46a294	0.012123723
158	0x3d0f8612	0.03503997
159	0xbcb0f1e3	-0.021599716
160	0xbb5e5fe5	-0.003393167
161	0x3cd14c38	0.02554904
162	0x3d3c656f	0.045995172
163	0xba548d1c	-0.0008108185
164	0xbcc656df	-0.024211345
165	0xbcc323fd	-0.023820871
166	0x3d1b9e5d	0.037992824
167	0x3cee72a0	0.029107392
168	0x3af36aab	0.0018571218
169	0xbc5ced09	-0.013484248
170	0xbd0ae67a	-0.033911206
171	0xbc997c73	-0.0187361
172	0x3c38049b	0.011231567
173	0x3d182ba9	0.037151013
174	0x3ca582a5	0.020203898
175	0xbc9820e2	-0.018570367
176	0xbc19de4b	-0.009391378
177	0x3c56f5a8	0.013120092
178	0x3d40542b	0.04695527
179	0x3a6c390b	0.00090111856
180	0xbcdc95fe	-0.02692699
181	0xbcdf61e9	-0.027268367
182	0x3ca5ae90	0.02022484
183	0x3c91d06a	0.017799575
184	0xbc3ad49c	-0.011403229
185	0xbc54a55b	-0.012978877
186	0x3c3f38d3	0.011671263
187	0x3b12fa06	0.0022426858
188	0xbbafcff5	-0.0053653666
189	0x3cc40046	0.023925912
190	0x3ce61fa1	0.028091254
191	0x3b2a6827	0.002600202
192	0x3d0a20ea	0.033722796
193	0xb91536b8	-0.00014230132
194	0xbc404f0a	-0.011737594
195	0x3d7540ac	0.05987613
196	0xbc90550b	-0.017618677
197	0xbc91e995	-0.017811576
198	0x3aac1afa	0.0013130598
199	0xbc36e632	-0.011163281
200	0x3d0bdbf5	0.034145314
201	0xbd29a072	-0.04141278
202	0x3d622d6c	0.0552191
203	0x3caf0df7	0.021368964
204	0x3ba1adda	0.004934055
205	0x3c66b820	0.014081985
206	0x3c679c44	0.014136378
207	0xbc6e480a	-0.014543543
208	0x3c860f20	0.016364634
209	0x3d1f7618	0.038930982
210	0x3c3e9ec2	0.0116345305
211	0x3d1f3afa	0.038874604
212	0xbd31e5d4	-0.04343207
213	0xbbbd7510	-0.005781777
214	0xbba71ca2	-0.005099849
215	0xbce56326	-0.02800138
216	0x3c94fbac	0.018186413
217	0xbcddbe7c	-0.02706837
218	0x3c20a3f2	0.009804713
219	0xbb67d788	-0.003537627
220	0xbc1916d4	-0.009343822
221	0x3cffd63c	0.031230085
222	0x3cdb8aaf	0.026799528
223	0xbb995fdc	-0.004680617
224	0xbc900526	-0.01758058
225	0x3c35e85a	0.01110276
226	0x3ca2b286	0.019860517
227	0x3c1515b1	0.00909941
228	0xbb9b9228	-0.004747648
229	0xbcc0e10b	-0.023544809
230	0xbc35cfd8	-0.011096917
231	0x3c6f06af	0.014588996
232	0x3cd9c249	0.0265819
233	0xbae94596	-0.0017797227
234	0xbbb34d0d	-0.0054718317
235	0x3bdaa836	0.0066728843
236	0x3c17e626	0.00927118
237	0x3d3b3fe0	0.045715213
238	0x3d69cda3	0.057080876
239	0x3b8bfc06	0.004271987
240	0xbd01017f	-0.031495567
241	0x3b75fb6c	0.0037533892
242	0xbc933a51	-0.017972143
243	0xbcd50cdc	-0.026007108
244	0x39fa601c	0.00047755323
245	0x3bbd27d1	0.0057725688
246	0x3c6259f3	0.013815391
247	0x3c983061	0.018577756
248	0xbd44c06e	-0.048035078
249	0x39882c7a	0.0002597308
250	0xbc496fb1	-0.012294696
251	0xbcaf73fa	-0.021417607
252	0xbc24ba86	-0.010054236
253	0xb8e7e41d	-0.00011057428
254	0x3cc4c044	0.02401746
255	0x3c65c7f8	0.014024727

mod1.7.bias f4 [64]
0	0xbcfe8c8d	-0.03107288
1	0xbb8fdb01	-0.004390121
2	0x3cfb4cd9	0.030676292
3	0xbc6f4a87	-0.014605171
4	0x3d41a8c7	0.0472801
5	0xbce05ea1	-0.027388873
6	0xbc38ea7a	-0.011286372
7	0x3b56e5a4	0.0032790685
8	0x3cb23308	0.02175285
9	0xbc5dd06a	-0.013538459
10	0xbd08cfd5	-0.03340133
11	0xbc4d0b85	-0.0125149535
12	0xbcd3a02a	-0.025833208
13	0x3d0f1915	0.03493603
14	0x3d03c81c	0.03217326
15	0x3c207222	0.009792836
16	0xbcf9a3ca	-0.030473609
17	0x3d00bf4a	0.031432427
18	0xbcb52323	-0.022111481
19	0xbbb29f57	-0.0054511237
20	0x3c6b74a5	0.014371072
21	0xbb1aad8f	-0.0023601984
22	0x3d69f280	0.05711603
23	0xbd1104d5	-0.035405
24	0xbd1e6c08	-0.038677245
25	0xbcc3bcb8	-0.023893699
26	0x3d045456	0.03230699
27	0xbc4556ae	-0.012044592
28	0xbcb1480e	-0.021640804
29	0xbcd578d9	-0.026058601
30	0xbc8182ba	-0.015809406
31	0xbacd5445	-0.0015665373
32	0xbc742123	-0.014900479
33	0x3d12a8bd	0.035805453
34	0x3c28c1bf	0.010300099
35	0x3bdd4e3e	0.006753712
36	0xbd2a3e5c	-0.041563377
37	0x3cd0ece3	0.025503581
38	0xbd7f722c	-0.062364742
39	0xbc8decf8	-0.01732491
40	0x3d285be4	0.04110326
41	0xbc5cf459	-0.013485991
42	0x3d816f1c	0.063200206
43	0xbcd825d2	-0.026385222
44	0x3cf59ab1	0.02998099
45	0xbbefea95	-0.0073216655
46	0x3d1701c0	0.036866903
47	0xbd4b0e65	-0.049574275
48	0x3cfa5e8a	0.030562658
49	0x3cfb015d	0.030640299
50	0xbb1059e9	-0.0022026247
51	0x3cd46ee4	0.025931783
52	0x3d15d3a8	0.036578804
53	0xbc447f5f	-0.011993258
54	0xbda24af4	-0.079244524
55	0xbae4993e	-0.0017440689
56	0x3d1fef0d	0.039046336
57	0xbd88f3b8	-0.06687111
58	0xbcc69d9a	-0.024245072
59	0xbc63afa1	-0.013896854
60	0xbb11b14a	-0.0022230917
61	0x3c0e8c20	0.008700401
62	0x3cdb11fc	0.026741974
63	0x3c9f8826	0.0194741

mod1.8.weight f4 [10, 64]
0	0x3d08b5f1	0.033376638
1	0x3de2786f	0.11058127
2	0x3e497d80	0.1967678
3	0x3d919991	0.071093686
4	0xbcd2decd	-0.025741005
5	0x3e2a8037	0.16650473
6	0xbd0ffdb1	-0.03515405
7	0x3e1ee5dc	0.15517372
8	0x3dcd96b3	0.10038509
9	0x3d935a58	0.07194966
10	0x3e86fa93	0.26363048
11	0xbd0e2aad	-0.034708668
12	0x3dc2cbe9	0.09511549
13	0xbe244b06	-0.16044244
14	0xbdca6ba6	-0.098838136
15	0xbe000f56	-0.1250585
16	0x3c7020b7	0.014656237
17	0x3d25d8fc	0.040490136
18	0x3e914428	0.28372312
19	0xbd99156e	-0.074747905
20	0xbe0f2d4b	-0.13982122
21	0xbddb52bb	-0.10709139
22	0xbe528ccc	-0.20561522
23	0x3d2b61b8	0.04184124
24	0x3e30d802	0.172699
25	0x3e807d46	0.25095576
26	0xbe6aa246	-0.22913465
27	0xbe7fad7c	-0.24968523
28	0x3dfaf85d	0.12254403
29	0x3e2ae1f5	0.16687758
30	0x3b694828	0.0035595987
31	0xbd95faf1	-0.07323254
32	0x3e80def8	0.25170112
33	0xbdd7d007	-0.10537725
34	0xbe1defcb	-0.15423505
35	0xbbd6db57	-0.006556909
36	0xbd2e90af	-0.04261845
37	0xbe4e0dbe	-0.2012243
38	0x3e4ccac1	0.1999922
39	0x3d4138c6	0.047173284
40	0x3dec5525	0.115396775
41	0x3e6f7568	0.2338463
42	0xbdff6884	-0.12471107
43	0xbe36d2fc	-0.17853922
44	0xbda52aee	-0.08064829
45	0x3e1e462a	0.15456453
46	0x3da0eb0d	0.078573324
47	0xbe46062d	-0.19338293
48	0x3d66b1b9	0.056321833
49	0xbe43d9ab	-0.19126002
50	0xbd00cbd0	-0.03144437
51	0x3d35cad2	0.044382878
52	0x3e0c7a4f	0.13718532
53	0xbe5f9ffa	-0.2183837
54	0xbd2d9d3b	-0.042386275
55	0x3cc1de48	0.023665562
56	0xbe3748c1	-0.17898847
57	0x3e0e644a	0.13905445
58	0xbe90fd99	-0.2831848
59	0x3e71d6a6	0.23617038
60	0x3c8deb3b	0.01732408
61	0x3d587036	0.052841388
62	0x3e3dc986	0.18533906
63	0xbe44203f	-0.19152926
64	0x3d3cd7ab	0.046104115
65	0xbcc2c994	-0.02377776
66	0xbe21bbe6	-0.15794334
67	0x3e631c76	0.22178826
68	0x3d5b3133	0.053513717
69	0x3d14e2f5	0.036349256
70	0x3e0a7004	0.13519293
71	0x3e582127	0.21106397
72	0x3e817874	0.2528721
73	0x3e89fded	0.26951542
74	0x3cdfdfc2	0.027328376
75	0x3df5eb6d	0.120077945
76	0x3e30af7f	0.17254446
77	0xbcac609f	-0.021042166
78	0xbdd82437	-0.105537824
79	0x3e824243	0.2544118
80	0x3d511e59	0.051054332
81	0xbd8b49cf	-0.06801187
82	0xbe4474f9	-0.19185247
83	0xbe329635	-0.17440112
84	0xbcf29988	-0.029614225
85	0x3cd34d5c	0.025793724
86	0x3e02a7f2	0.12759379
87	0x3e2ea7f6	0.1705626
88	0x3e3b5ad0	0.18296361
89	0xbcbcaad0	-0.023030668
90	0x3dc564f5	0.09638397
91	0x3e90facf	0.28316352
92	0xbea7edbc	-0.32798564
93	0xbe9cbc9d	-0.3061265
94	0x3e254c86	0.16142473
95	0xbdf126d4	-0.11774984
96	0x3d43811c	0.04773055
97	0xbe132375	-0.14368995
98	0xbdfe9f3d	-0.12432716
99	0xbcf465fe	-0.02983379
100	0x3e8a267f	0.26982495
101	0xbde1cd61	-0.11025501
102	0x3e8b030c	0.27150762
103	0x3e5d6d45	0.21623714
104	0xbe0afd99	-0.13573302
105	0xbe31cbe0	-0.17362928
106	0xbe894978	-0.26813865
107	0x3e9add6a	0.3024705
108	0x3dcca41b	0.09992238
109	0x3e89b15c	0.26893127
110	0xbe2d4c63	-0.1692367
111	0x3e803f0a	0.25048095
112	0x3e6adaa4	0.22934967
113	0x3e06e5fc	0.1317367
114	0x3c2adbe9	0.010428407
115	0xbd30b87d	-0.04314469
116	0xbe498b0e	-0.19681951
117	0xbda94b76	-0.08266346
118	0x3ddb9eae	0.10723625
119	0xbc805233	-0.015664196
120	0x3e8788ec	0.2647165
121	0x3e02663e	0.12734315
122	0xbe09c314	-0.13453323
123	0x3e95ac35	0.29232946
124	0x3e5f4151	0.2180226
125	0x3d5e6d78	0.054303616
126	0xbebb193c	-0.3654269
127	0xbd3b92a0	-0.04579413
128	0xbd7be9ce	-0.06150227
129	0xbb200af8	-0.00244206
130	0x3e237398	0.15962064
131	0xbd6a4030	-0.05719012
132	0xbd4e3c4e	-0.05035048
133	0xbe5ce25e	-0.21570727
134	0xbd900c06	-0.07033543
135	0xbe54e122	-0.20789006
136	0xbe290fb7	-0.16509901
137	0x3e3669e4	0.17813832
138	0xbe1427c6	-0.14468297
139	0xbe12c13c	-0.14331526
140	0xbe236c39	-0.15959252
141	0x3d1379dd	0.03600489
142	0xbdc7314e	-0.09726201
143	0xbceb2847	-0.02870573
144	0xbcfe1b5a	-0.031018902
145	0xbe2ded3f	-0.16985033
146	0xbc926637	-0.017871005
147	0xbde37efc	-0.11108205
148	0x3d9ae3b5	0.07562963
149	0xbe24d547	-0.16096984
150	0xbe4770d0	-0.19476628
151	0xbccd73f1	-0.0250797
152	0x3e256493	0.16151647
153	0x3db8a9f0	0.09016788
154	0x3b07d976	0.0020728982
155	0xbe5a7f0b	-0.21337526
156	0x3e483289	0.19550528
157	0x3c57c918	0.013170503
158	0xbca4f09d	-0.020134265
159	0xbe402d2d	-0.18767233
160	0xbe427c5a	-0.18992749
161	0xbe112adb	-0.14176504
162	0xbe23fe09	-0.16014875
163	0x3e7e632c	0.24842519
164	0xbe451060	-0.19244528
165	0xbe4fd9c3	-0.20297913
166	0xbe2556c7	-0.16146384
167	0xbe8f1c6c	-0.27951372
168	0xbe1b9cac	-0.15196484
169	0x3d86a5eb	0.06574615
170	0x3e90aeca	0.28258353
171	0x3dd0f979	0.10203833
172	0x3e2fc1ba	0.17163745
173	0xbc8626fd	-0.016376013
174	0x3c38cbf9	0.0112791
175	0xbe49130c	-0.19636172
176	0x3e35437a	0.17701522
177	0x3e06774a	0.13131443
178	0xbe0b6752	-0.13613632
179	0x3e258cec	0.16167039
180	0x3e178b38	0.14799201
181	0x3e7352a3	0.23761992
182	0xbd85dbc1	-0.06536055
183	0xbd33b601	-0.043874744
184	0xbdf5d424	-0.12003353
185	0x3e5e7e42	0.21727851
186	0xbe1b84cd	-0.15187378
187	0xbe84677a	-0.25860196
188	0x3dd07c73	0.10179987
189	0xbe208534	-0.15675813
190	0x3e04674e	0.12930033
191	0xbe3a9cd2	-0.18223885
192	0x3db7712a	0.08957131
193	0xbe017392	-0.12641743
194	0x3dfa7cfc	0.1223087
195	0xbd96c0e9	-0.073610134
196	0xbe1d81c7	-0.15381537
197	0xbe596771	-0.21230866
198	0x3e0dfb8c	0.13865489
199	0xbe81d37f	-0.2535667
200	0x3c22573e	0.0099084955
201	0xbcedb7fb	-0.029018393
202	0xbd8b7dc9	-0.06811101
203	0xbce819f2	-0.028332684
204	0x3db7d479	0.08976073
205	0xbdae37a2	-0.08506705
206	0xbdc59884	-0.09648231
207	0xbdf2645b	-0.118355475
208	0x3dd857d2	0.105636254
209	0x3dd499f4	0.10380927
210	0xbd916620	-0.07099557
211	0x3ddd117b	0.1079435
212	0x3e189acf	0.14902805
213	0x3db1da6b	0.08684238
214	0xbd77a19e	-0.060456865
215	0xbe320159	-0.17383327
216	0xbdbff1ab	-0.093722664
217	0x3e373959	0.1789297
218	0x3e019ce4	0.12657505
219	0xbd63b828	-0.055595547
220	0x3dc364d1	0.095407136
221	0x3d90bc58	0.07067174
222	0xbd8526da	-0.06501551
223	0x3d84fa33	0.06493034
224	0xbe343c62	-0.17601159
225	0xbd673a91	-0.056452338
226	0xbe1d3b66	-0.1535469
227	0xbe02b555	-0.12764485
228	0xbd6516dc	-0.055930004
229	0x3e5e0b8f	0.21684097
230	0xbdf55fce	-0.11981164
231	0x3e594cae	0.21220657
232	0xbe3d7f14	-0.18505508
233	0xbdffa5c7	-0.124827914
234	0x3d1d5bcc	0.038417622
235	0xbe38cffe	-0.18048093
236	0xbdf7b507	-0.12095075
237	0x3de38075	0.111084856
238	0x3d5f1292	0.05446107
239	0x3e107639	0.14107598
240	0x3d279d2c	0.040921375
241	0x3dbe5f4e	0.09295522
242	0x3e0f21fd	0.13977809
243	0x3b32c8fc	0.002728044
244	0xbcb8670a	-0.02251007
245	0x3d31cdc6	0.04340913
246	0x3e3c2471	0.18373276
247	0xbda0543d	-0.07828567
248	0xbcf69911	-0.030102285
249	0xbd1a6256	-0.037691437
250	0x3e6b9c2e	0.23008797
251	0x3de75d54	0.11297098
252	0x3daf6701	0.08564568
253	0xbdfc887c	-0.1233072
254	0x3dec5059	0.115387626
255	0x3e18dd58	0.14928186

mod1.8.bias f4 [10]
0	0xbd937b38	-0.072012365
1	0x3d5c239b	0.053744894
2	0xbb205680	-0.002446562
3	0x3dcdbd66	0.100458905
4	0x3e4447b3	0.19167976
5	0xbe40b396	-0.18818507
6	0x3d83ceac	0.06435904
7	0x3d7d0490	0.06177193
8	0x3d0e5f14	0.034758642
9	0xbca8362f	-0.02053365
